saved_models/rnn_model.pth.pth (torch, 556047 bytes, 11 tensors)

embedding.weight f4 [66, 15]
00000000: 86e5 23be d640 233e b399 68bf ce84 a9bf
00000010: 6091 4cbe 9fc7 ac3e 2a66 9d3f 5bf3 683f
00000020: 9841 4dbf afeb 153f 8935 2f40 6a8a 24bf
00000030: cf4c 83bf 2b75 28be 2ef9 a2bf 5812 ad3f
00000040: 569b 94bf f683 9abf 69c5 2c3f 8d80 d93f
00000050: 57c3 bf3f f19a 9e3e 0bab 583f 94ab 573e
00000060: 050b aebf 9a74 dcbe de1d f83f 8da3 1d3f
00000070: 673a 3ebf a5a3 85bf 93d5 0b40 aaf7 5ebd
00000080: 1c15 3e3f 64b7 03bf 7b69 8f3f ef34 89be
00000090: 3af1 4940 a469 8fbf 05b5 d33f 1f94 963e
000000a0: 404b 4740 86b4 3540 af11 343f a552 b53e
000000b0: 2ca6 10c0 59db d2bf b959 ee3f cef8 a93f
000000c0: b709 963e 14f0 5240 fd0c 143f 6fce 0fbe
000000d0: 88d3 e53c 396d dfbf 6993 0f40 db64 80be
000000e0: 245e 273e 46ab dbbf 7b5e 4dbf 371c 183f
000000f0: 73e9 273f 5a77 24c0 b2a0 14bf 5331 fb3f
00000100: 63ed bc3f d118 f03f a504 0040 577e 72c0
00000110: bf62 97be 8701 eabf 1563 9ebf fec2 943f
00000120: f006 e9be 9dc4 f2bd 6063 fdbf 7c5d f43f
00000130: 8b12 043e b60f a7bf 4397 02be c9c3 06c0
00000140: 1632 123f 4a87 5b3f d8f5 7cbf a57b 86bf
00000150: f426 90bf c043 27be ba70 aa3e 273f 453f
00000160: ac14 82be 6701 0bbf 4595 533f ba42 1f3f
00000170: 7b04 71be b111 63bf b396 883f f1af 573f
00000180: e4da 0440 c38f ecbf 2b2b babe da47 273f
00000190: ec3b b93e 0c95 3f3e 68e1 e33f 69a5 cebf
000001a0: e46a 8bbe 0dea e6bf 4837 27be 9789 703e
000001b0: 8617 99be 3a4a b2be 5fac 773f d141 fa3f
000001c0: 8325 dfbf 16ae ddbf 5d13 b23f 567c 88bf
000001d0: 690c 013f 2ec9 abbf 87ac b5bf 0d39 b8bf
000001e0: c664 f33e 2453 2fbf 90db 0c3f 936a c5be
000001f0: 7bc5 66bd 4237 e7be c605 283f fe48 8fbe
00000200: 8be4 d7bf c5b1 2d3e a53c 3a3f 06a5 8d3f
00000210: 51e3 473f 2265 3abf 4c15 143f f709 bfbf
00000220: 8670 dc3e aa78 09be bb62 09bf 49e5 803f
00000230: b42a d23e 1c6b 863f 3c0e 0abf e667 1d3d
00000240: 647a ae3f 7a0c 24c0 d731 34be 7591 cc3f
00000250: acde dbbe eb0e 2dbf 28fc 923f e484 bbbf
00000260: b4de 01bf 9145 edbe d689 0140 0536 2fbe
00000270: c54f 8d3e b374 6abf 74e5 5dbf a2c2 b0bf
00000280: 7e1f 643d 1a97 353f de71 eabe 404b d23f
00000290: 5a0c 10bf 989b 67be 6785 05bf 4a91 e43e
000002a0: 9297 503d cb10 13c0 7e92 91bf b378 56bf
000002b0: 8754 d43e 9f28 0dc0 672c be3f 5a3d 3ebf
000002c0: 0413 0bc0 0dad 363f 2010 713f af2e c7bf
000002d0: 9e51 fdbd 912d 52bd baf0 e2bf fb60 dcbf
000002e0: 4041 2240 e061 a63e 3877 803f 09b6 1d3e
000002f0: 9e7e febf 8428 a2bf 7445 28c0 bf37 49be
00000300: 3043 b13f 3a62 793f 857b c93f 5381 3dbf
00000310: bf11 26bf 6eee 793f 71ce 0c3f 15bc b83f
00000320: 9823 a1be 7dd4 943e f219 663f b0ef 153f
00000330: a8e7 91bf 1578 8c3f 9240 10bf da53 3c3d
00000340: aa19 3d3f 4066 723f 4682 bb3f 0ac1 bd3e
00000350: 053f d2bf d0dc fe3f 20bf 11be 540b 813f
00000360: a7df 8bbe b34c 80bf 7bdb 8fbf 18fc 1f3e
00000370: 92f7 d93e 74f4 043f 88de 7fbf 04a3 e9bf
00000380: a02a 7dbf d216 c93f 0f41 813e 5e58 283f
00000390: 25bd 8a3f e4b4 c6bd 357f fe3f 3b37 d0bf
000003a0: c69a 81bf b721 49bf 0c73 25bf b263 bb3e
000003b0: 0da9 0d3f f243 f03f 643d 0740 5321 c83f
000003c0: 45c7 943e efa9 2a3e d336 73bf a55e 80be
000003d0: 9ce3 c83e a0ff 933f f45e aabf 5ca9 073f
000003e0: 347e b9bd 0db2 e9be c15b 82bf d50e cc3f
000003f0: db02 333f 59be 4dbf 6882 1cc0 ccdf 6ebf
-0.16005525 0.15942702 -0.90859526 -1.3243654 -0.19977331 0.3374605 1.2296803 0.9099633
-0.80178213 0.5856275 2.7376425 -0.64273703 -1.0257815 -0.16450946 -1.2732294 1.3521223
-1.1609905 -1.2071521 0.67488724 1.6992356 1.4981488 0.30977586 0.8463599 0.21061546
-1.3597113 -0.4305771 1.9384115 0.61577684 -0.74307865 -1.0440565 2.1849105 -0.05443541
0.7425096 -0.51451707 1.1204065 -0.26798198 3.1553483 -1.1204114 1.6539618 0.29409882
3.113968 2.8391433 0.70339483 0.35414615 -2.2601423 -1.647319 1.8621131 1.3279054
0.29304287 3.2959032 0.5783232 -0.14043592 0.028054968 -1.7455207 2.2433722 -0.25076947
0.16344506 -1.7161644 -0.8022229 0.5941805 0.6559059 -2.5697846 -0.580577 1.9624428
1.4759945 1.8757573 2.0002835 -3.7889612 -0.29567525 -1.8281716 -1.2373987 1.1622007
-0.45513105 -0.11853907 -1.9795952 1.9091029 0.12897699 -1.305167 -0.12753014 -2.1056998
0.57107675 0.8575331 -0.9881263 -1.0506483 -1.1261888 -0.16334438 0.3328913 0.7704949
-0.25406396 -0.54299015 0.8264964 0.6221119 -0.23536865 -0.8869887 1.067099 0.8425284
2.07586 -1.8481373 -0.3636106 0.6534401 0.3617853 0.187092 1.7803164 -1.6144229
-0.2722999 -1.8040177 -0.16329682 0.23489986 -0.2990076 -0.34822255 0.9674739 1.9551336
-1.7433323 -1.7318752 1.3912159 -1.0662944 0.5040956 -1.342077 -1.4193276 -1.439241
0.47537822 -0.6848624 0.55022526 -0.38557872 -0.056340676 -0.45159346 0.6563381 -0.27985376
-1.6866621 0.16962345 0.72748786 1.1065986 0.7808123 -0.72810566 0.57844996 -1.4924916
0.430546 -0.13424936 -0.53666276 1.0069972 0.41048205 1.0501437 -0.5392797 0.038429163
1.3631101 -2.5632615 -0.17597137 1.598189 -0.42943323 -0.6760089 1.1483202 -1.464993
-0.50730443 -0.46342137 2.0240378 -0.1711045 0.27599922 -0.9158432 -0.8667824 -1.3809397
0.055694096 0.7093369 -0.4579 1.6429214 -0.56268847 -0.22617948 -0.5215668 0.44642097
0.0509258 -2.2979 -1.1372831 -0.8377792 0.4147074 -2.2056043 1.48573 -0.74312365
-2.1730356 0.71357805 0.9416523 -1.5561122 -0.12369083 -0.051312987 -1.7729714 -1.7217096
2.5352325 0.32496548 1.0036383 0.15401472 -1.988239 -1.2668614 -2.629239 -0.19650172
1.3848629 0.97415507 1.574082 -0.7402546 -0.6487083 0.9762944 0.55002505 1.4432398
-0.31472468 0.29068366 0.8988334 0.5856886 -1.1398821 1.0974146 -0.56348526 0.045978405
0.73867285 0.9468727 1.4649131 0.3706134 -1.6425482 1.9911137 -0.14233065 1.0081582
-0.2731907 -1.0023407 -1.1238855 0.1562351 0.42571694 0.51935506 -0.9994893 -1.8252873
-0.98893166 1.5710089 0.25244948 0.6575984 1.0838972 -0.09702471 1.988257 -1.6266855
-1.0125358 -0.7856707 -0.6462867 0.365995 0.55336076 1.8770735 2.113122 1.563517
0.2905828 0.16666387 -0.9500553 -0.25072208 0.39236152 1.1562386 -1.3310227 0.52992797
-0.090572745 -0.45643654 -1.0184251 1.5942026 0.6992623 -0.8036857 -2.4454594 -0.93310237

rnn.weight_ih_l0 f4 [200, 15]
00000000: 6f67 c83e 52ec 3cbd 94e0 1abe 8dc4 653f
00000010: d73d 1ebf bf8f 8a3e 8384 a23f 7090 d8be
00000020: aebc 3abe 9d78 dbbd 1417 2c3f 3faf 20bf
00000030: 0c78 31bd f37e d53e b0b6 fcbe 3b46 c53f
00000040: bc22 273f 5d3e 1abc 53fa 3a3d d639 033e
00000050: 84db ab3e 1596 843e a401 1d3f 3150 553f
00000060: 1fc4 203f 58fc 053f 7a47 6f3f e4aa dbbb
00000070: 21fa 19bf 9702 c33e 218b 41bf f343 0e3f
00000080: 40d3 6fbf bd2c 413e ac46 583f 8150 5e3d
00000090: b42b 82bf ca3f d53e 04de 5bbe 322f 133e
000000a0: 76d4 0a3f 644a 373e 7ad0 70bf baed 423f
000000b0: b8fb 4d3f 5081 9cbf 13a4 52bf 9e8c 533c
000000c0: 1c7e 253f e401 07be e33b 763f 8346 fbbe
000000d0: 3d01 9c3d 4d1a 473e f84e 6a3f 9898 623f
000000e0: ad8a 0fbf 4cf4 27be d1fd 753d 78c5 3ebf
000000f0: 0dec cc3e df01 0cbf d85e 1e3f 006e 0cbe
00000100: a732 5c3d a8c7 b7be 2c7f 873f 2b65 81bf
00000110: 59f4 b83d 6dc7 083e f12e 3dbe 0ace 7dbf
00000120: 663c 88be 5eae a4bd cc30 acbf a9e5 61be
00000130: 4e38 6f3e 45dd c73e 32cc 9abd e393 93bf
00000140: 7f9c 153f 7d68 b43e c025 8f3e 28c5 a73e
00000150: 56a7 99bf 7ac3 b6bf 32dc 8c3f 6e8a 80bd
00000160: c234 2ebf ff2b debd dc05 15bf 0364 083f
00000170: 4446 843f ad33 60bf 2714 a43e 1923 1c3f
00000180: 34a6 f13e 526b af3e 419b 663e 93ca d4bf
00000190: d6a0 e8be f317 2cbc ae32 cc3e 113a 813c
000001a0: 731b 873d de4a e93e e07f 2cbf 17b5 e93e
000001b0: 76bc ad3e 13a2 833e 9ba9 5f3f 99c3 e8bd
000001c0: 6ff0 ae3d 2fff 54bf 45d1 3b3f 0f0a eebe
000001d0: 93e0 0a3f 84ae 85bf 2bfa 25be 9e37 58bf
000001e0: 7f26 d5be 6ca1 983e b291 1e3f 6b5e 1bbf
000001f0: c5cd bcbf bfa3 7bbe 64c3 1dbf 7695 4e3e
00000200: 24b7 43bf 6142 263f 3e53 42bf c8f6 7abc
00000210: d522 0abc 7de3 cb3e 9dcf 76be a976 99bc
00000220: c602 1fbf 6ce4 1a3f dcec 133d a595 7e3f
00000230: 08bf a4be be1e 95bf dec8 a3bf 395e a23e
00000240: 07dc d5be f9a1 c83e aa06 8fbe edd3 83be
00000250: 99a3 2dbf 3d30 3dbe 4971 6d3f 02df 66bd
00000260: 9fa7 10bf 7199 e03e a914 63bf f560 c5be
00000270: 044e a53e d6ac 36be 621a 383e 353a 923f
00000280: 809c ddbc f149 9b3f 897d 18bf 131e 28bf
00000290: d5e0 d5be b579 7abc baa7 a03e 6442 49bf
000002a0: 9ba7 083f 2ef6 a9be 6fbb 82be 90d4 843f
000002b0: 69ba 49bf c85c 01bd 429c fc3e 6caa bf3e
000002c0: 99a0 0b3f 5bee 86bf 1d01 de3e 0a5e 35be
000002d0: 8904 983e ad42 cdbd 7a04 353d 1387 803e
000002e0: 3ea9 d0bf 94af 00be 5c72 93be 69cd 833f
000002f0: f79f 4f3f 6b92 90be 1581 7e3f d9ac a53e
00000300: 8fcf 43bf 20b2 07bf 44cc c53e 75a3 97be
00000310: dd12 e33c 1ba3 33bf 3514 253e 945b 703e
00000320: eee7 8abe a332 75bf 6732 fe3e 6e2b d23f
00000330: f8a7 07bf e156 563f f503 3f3e 947e 6ebf
00000340: ea47 b73e 7726 843a bdee 913f 0bc9 a63f
00000350: 415d da3e 9fb0 0a3f d45c c93e ec41 1abd
00000360: 97b0 183f a1ce 513e 5da1 943e ff7e 78bf
00000370: aad7 423f 1a4e 223f 0e03 62bb 60a7 2cbf
00000380: c4f0 033e 7cea 483e 3344 763f affb a9be
00000390: cb95 603e f093 033f 0d2e ef3e fad9 623e
000003a0: 761d c7be d221 253f 6f2d 9b3f 013e 423f
000003b0: 09f0 823f e260 e03e 4efa f53e 1ec7 913e
000003c0: bf3f 073f 65d0 3f3e ce16 d0bf 0f6c 08bf
000003d0: 9913 9c3f fa1e 93be 3c53 1e3f a21f e8be
000003e0: 4311 a83e dfb8 413f 1f92 87be 9034 0e3f
000003f0: ed16 c4be b787 d43e d104 27bf b092 dd3e
0.39141414 -0.04612381 -0.15124732 0.8975304 -0.6181311 0.27062795 1.2696689 -0.42297697
-0.18236038 -0.107163645 0.67222714 -0.62767404 -0.043327376 0.41698417 -0.4935813 1.5412058
0.65287375 -0.009414283 0.045648884 0.12815031 0.33565915 0.25895754 0.6133063 0.8332549
0.6279926 0.5233817 0.9346844 -0.0067037214 -0.6014729 0.38087913 -0.7560292 0.5557243
-0.93681717 0.18864723 0.84482837 0.054275993 -1.0169587 0.4165023 -0.21471411 0.14373472
0.5423044 0.17899472 -0.9406811 0.7614399 0.8046222 -1.2226963 -0.8228161 0.012911944
0.6464555 -0.13184315 0.9618513 -0.49077234 0.07617424 0.19443627 0.91526747 0.8851409
-0.5607098 -0.16401786 0.06005651 -0.74520063 0.40023842 -0.54690355 0.6186347 -0.13713837
0.053759243 -0.35894513 1.0585685 -1.0108999 0.090309806 0.13357325 -0.18474938 -0.99142516
-0.2660858 -0.080410704 -1.3452392 -0.22060265 0.23361322 0.39036003 -0.075584784 -1.1529506
0.5844192 0.35235968 0.27958488 0.32767606 -1.2004192 -1.4278405 1.1004698 -0.06276403
-0.6804925 -0.10848235 -0.58212066 0.53277606 1.0333943 -0.8757885 0.32046625 0.60991055
0.47197115 0.34261566 0.22520162 -1.6624321 -0.45435208 -0.010503757 0.39882416 0.015774759
0.065970324 0.45564932 -0.6738262 0.45645973 0.33932847 0.2570959 0.8736817 -0.11365432
0.08541953 -0.8320188 0.73366195 -0.4649205 0.54248923 -1.0443883 -0.16208713 -0.84459865
-0.41630933 0.29810655 0.61941063 -0.60690945 -1.4750296 -0.24574183 -0.6162627 0.20174202
-0.76451325 0.64945036 -0.7590827 -0.015317626 -0.008431156 0.39821997 -0.24102636 -0.01873334
-0.62113607 0.60504794 0.03611456 0.9944709 -0.32176995 -1.1650007 -1.2795675 0.3171251
-0.4176943 0.39186075 -0.27934772 -0.25747624 -0.67827755 -0.18475433 0.92750984 -0.05636502
-0.5650577 0.43867067 -0.887034 -0.38550535 0.32286084 -0.17839369 0.17978814 1.1424013
-0.027052164 1.213194 -0.5956655 -0.6567089 -0.41773096 -0.015287806 0.31377965 -0.7861693
0.53380746 -0.33195633 -0.25533625 1.0377369 -0.78800064 -0.031582624 0.49337965 0.3743471
0.5454193 -1.054149 0.43360224 -0.17711654 0.2969096 -0.10022483 0.044193722 0.25103053
-1.6301649 -0.12566978 -0.28798187 1.0297061 0.8110346 -0.28236708 0.99415714 0.32358435
-0.76488584 -0.5300617 0.38632405 -0.29616895 0.027718956 -0.70170754 0.1612099 0.23472434
-0.27130073 -0.9578039 0.4964783 1.6419504 -0.52990675 0.83726317 0.18653853 -0.9316189
0.35797054 0.0010082264 1.1400982 1.3030103 0.42649272 0.5417575 0.39328635 -0.037660524
0.59644455 0.20488979 0.2902936 -0.9706878 0.7611033 0.63400424 -0.0034486684 -0.67442894
0.12884814 0.19620699 0.96197814 -0.33199832 0.21932141 0.5139761 0.4671482 0.22153464
-0.38889664 0.6450473 1.212324 0.7587586 1.0229503 0.43823916 0.4804253 0.28472227
0.52831644 0.1873184 -1.625696 -0.53289884 1.2193481 -0.2873457 0.61845756 -0.45336634
0.3282567 0.75672716 -0.2647867 0.55548954 -0.3829874 0.41509792 -0.65241724 0.43275976

rnn.weight_hh_l0 f4 [200, 200]
00000000: ff0a 133d 7a11 c8bd 9970 88bd 06eb d13d
00000010: e664 ce3e 577f 08bf 9de0 133e f4aa 38bd
00000020: 086d 553e c712 113f 1f7d 7ebe 23d8 2bbe
00000030: 1028 b0bd 07a4 9f3d adb1 f0bd 1074 aabe
00000040: 6902 a03d c87a aa3d 61b5 9bbd e301 e9bd
00000050: eba6 d13e ed18 3dbd c7dc fa3d 54a2 5e3d
00000060: 07c5 103e 8119 8a3e 7673 a53e 9ed5 863e
00000070: 996e 00be 8476 8a3e 1072 8bbe bd74 96bd
00000080: f0d9 dc39 c3e2 d43d 956b fc3d 7524 85be
00000090: 6566 513e a602 92be a52c 5a3e 51a2 9d3d
000000a0: 9524 dd3e 38d7 00bd 3968 b43d 558b 7abe
000000b0: 2504 a73e af19 35be b68e e83b bd05 ebbd
000000c0: 7941 8b3e bdb0 e0be 157c 8c3e 3d46 af3e
000000d0: 4f70 2c3e 1cd4 e93b be16 46bf a9d8 d23e
000000e0: e8bc 6c3e 017d 8e3e e7ac de3c 3be8 bb3d
000000f0: 1636 22bf 1d34 523e fc88 c23e 04c5 fa3d
00000100: c6ef 0c3d d9de 78bd 9a4c c9bc 0cc8 d2be
00000110: 089a 123e cf22 33be 3e93 14be a8f9 cbbd
00000120: 9e6e 39bd faaa a03c b1ed 003e f910 a83d
00000130: 9dab babe 3038 3b3e d2ba 35be 2146 ef3d
00000140: 81de 8ebe 4ace c9bd fb51 033d 8f25 ff3d
00000150: 0163 3b3e 54e7 8ebc 5b7c df3e a675 943e
00000160: 3fa0 aebc a6cf 04be bae9 7bbe c64a 2e3f
00000170: 7379 463e 8113 b33e 2959 71bd f7a0 953e
00000180: b68d bc3e 3246 afbb 060e babd 3787 12be
00000190: 3af4 8a3d 6c35 30be 2213 9fbe 3e94 81be
000001a0: ae9e 243e 10b1 f6bd 5ed4 a1be e809 5b3e
000001b0: 7ba2 7f3d 114b 47be 6c1a 07be d24b 893c
000001c0: 414f 0a3d c116 6d3e bc17 22bd 9758 74be
000001d0: 0c38 3fbd 50d1 46be 2f57 60be 83e6 bf3e
000001e0: 0efe b8be 37c7 36be 343a a0bc 4c06 33be
000001f0: 879a 64bd 8c39 71be 0818 29be a47a 88be
00000200: b0af b9be cfdf 8abd 7454 cebe d87d a83c
00000210: 4a9c bf3e ba4f c5be 1a5d c13c 7f6d 993e
00000220: 5f1e 843e 8eb6 c5be b963 eabd a07f 41be
00000230: 0047 63bd 01ee bc3d 4bb3 363d e8fd 4ebd
00000240: cbfd 34bd 86c6 dfbe a64d 753d a768 ef3e
00000250: ab92 65be 1ca1 debd 9710 0f3e 1fc0 9d3d
00000260: 5ed0 e7bd d6b6 37bd 4ba5 293d 3a4a 5fbc
00000270: baf3 b6bd 75f8 d93d 335b 093e 7582 d73c
00000280: 53c4 17bd c0b4 d03c dfdb 7c3e 23b7 4d3e
00000290: acc1 04bd fffa d0be c529 ff3c e689 38be
000002a0: f696 d4bd fd23 043e 7ac2 92bd 0ac1 2abe
000002b0: 626d 7bbe 3cc4 2abe 463e c6bd 4ad9 06bd
000002c0: 7566 86bd c287 163d 8c48 673e 5c8b b4be
000002d0: 6b3b a9be 267c 99bb fca3 e43c 7306 14be
000002e0: 70e1 aabd d883 833c 13a6 4e3e 1109 1abf
000002f0: 1d9c f6bd 421a aebd d325 b9bd 2171 8cbe
00000300: c222 b53d 4599 913e 25aa 5ebd 57d8 86bd
00000310: 7e60 babd 3c81 813d 13b5 a8bd c174 a0be
00000320: ddab 763d 34e1 36be d6ad 1abd c4fc 74be
00000330: 5e5c d5bc f91f 8cbe 25cc 2ebe 2990 363e
00000340: 92e7 c13d d63a 6a3d 3053 dd3d 82ac 0f3e
00000350: 042b 453e b225 573e 5909 8fbe ae5f 8ebe
00000360: 83b6 133d 8c6d a8be 34e9 803e d2f7 52be
00000370: ff89 2d3f 0a47 d73e 8223 1bbe 83da fe3e
00000380: 78b5 0abe d2be 0c3e 39e8 28be e8b0 a73d
00000390: 38f7 b7be 84dd a3be e592 25be babc ab3e
000003a0: 819e cd3c ce01 c2bd c3d9 f5bd 4f66 cdbd
000003b0: 17a4 193e 1fd8 603e 7ead 163e a2d5 683c
000003c0: 4c27 98be ee01 353d 16f4 953e 6b73 ec3b
000003d0: a237 17be e656 813b 584a bc3e e7d0 9e3d
000003e0: 007b 00be a72f 05bd cc6f a53d 77f5 9fbe
000003f0: 5929 19bc d99f d6bc 44bd 67be 685c 123e
0.03589916 -0.097689584 -0.06662101 0.10249905 0.40311354 -0.53319305 0.14441152 -0.04508491
0.20842373 0.56669277 -0.24852417 -0.16781668 -0.08601391 0.077949576 -0.11752639 -0.33291674
0.0781296 0.083242 -0.07602955 -0.11377313 0.4094766 -0.04616635 0.12249141 0.054354027
0.1413766 0.26972583 0.32314652 0.26334852 -0.1254219 0.27043545 -0.2723546 -0.07346485
0.00042124046 0.10394814 0.12325207 -0.26004377 0.20449217 -0.28517646 0.21306093 0.07696975
0.43191972 -0.03145525 0.088089414 -0.24467213 0.3262035 -0.17685579 0.0070970906 -0.11475704
0.2719839 -0.4388484 0.27438417 0.34233275 0.16839717 0.007135881 -0.7737845 0.41180924
0.23118937 0.27829745 0.027182056 0.09175154 -0.6336378 0.20527692 0.37995136 0.12244609
0.034408353 -0.0607594 -0.02457266 -0.4116825 0.14316571 -0.17493747 -0.14509293 -0.099597275
-0.04527151 0.019612778 0.12590672 0.08206362 -0.36459056 0.18283153 -0.17747048 0.11683298
-0.27904132 -0.098538 0.032060605 0.124583356 0.18299486 -0.01744429 0.43649563 0.2899601
-0.021316646 -0.12969837 -0.24600878 0.68082845 0.19382267 0.34975818 -0.05892292 0.2922437
0.36826867 -0.005348944 -0.09084706 -0.14309393 0.06784864 -0.17207879 -0.31069285 -0.25308412
0.16076156 -0.12045491 -0.31607336 0.21390498 0.062410813 -0.1946223 -0.13193673 0.016759787
0.03376699 0.23153211 -0.039573416 -0.2386192 -0.04668431 -0.19415784 -0.21908258 0.37480554
-0.36131328 -0.17849432 -0.019559003 -0.17482871 -0.05581143 -0.23557109 -0.16513073 -0.26656067
-0.3626685 -0.06780969 -0.40298808 0.02056782 0.37423927 -0.3853739 0.023603965 0.2996635
0.2580442 -0.3861584 -0.11444802 -0.18896341 -0.055487633 0.09225083 0.04460458 -0.050535113
-0.04418735 -0.4370615 0.059888504 0.4675953 -0.2241923 -0.10870573 0.13971172 0.0770266
-0.1131904 -0.0448521 0.0414174 -0.013628537 -0.08933206 0.106430925 0.13413696 0.026307324
-0.037052464 0.025476813 0.24693249 0.20089392 -0.032411262 -0.40816495 0.031147847 -0.18021354
-0.10380356 0.12904353 -0.07166 -0.16675201 -0.24553445 -0.1667642 -0.096798465 -0.032922067
-0.06562511 0.036750562 0.22586268 -0.35262573 -0.33053145 -0.004683989 0.027910225 -0.14455585
-0.0834378 0.016054079 0.2018054 -0.60170084 -0.12041495 -0.08501102 -0.090404175 -0.2743006
0.0884452 0.28437248 -0.05436148 -0.06584232 -0.09100436 0.063234776 -0.08237662 -0.31339076
0.060222495 -0.17859346 -0.03776344 -0.23924547 -0.02604502 -0.27368143 -0.17070062 0.1782843
0.09467997 0.057185017 0.108068824 0.1403065 0.1925469 0.21010473 -0.2793682 -0.27807373
0.03606273 -0.32896078 0.2517792 -0.20602348 0.6778869 0.42046386 -0.15150264 0.49776086
-0.13545787 0.13744667 -0.16494836 0.08188039 -0.359308 -0.3200494 -0.16169317 0.33542424
0.025099995 -0.094730005 -0.120044254 -0.100292794 0.15004002 0.21957444 0.1471462 0.01421109
-0.2971748 0.044191293 0.29287785 0.0072159073 -0.14767316 0.0039471267 0.3677547 0.07754689
-0.12546921 -0.032516148 0.08077964 -0.31241962 -0.009348237 -0.026199268 -0.22630793 0.14293063

rnn.bias_ih_l0 f4 [200]
00000000: aff6 343e e8ce 2fbe 1dd4 b9be 7ab2 4f3d
00000010: d363 00be beef bb3e 6db9 723e 9986 edbd
00000020: f6c3 67be 2af1 43bb f202 9a3e 47ea d5bd
00000030: 1b50 b93d 7a48 9abe 8e93 45bc e25f 2bbe
00000040: 2d2d 883e d209 e9bc 5285 643c fe5e b2bc
00000050: dec6 dabe e1d5 5f3d e005 a73d 70bf c7be
00000060: 311e 8bbe 3999 893e 1bce b03d 2cdc 7f3b
00000070: c840 d63e 57aa 8f3e 8727 96be c6f4 493e
00000080: 850e e33d ab7e c43d 7990 bcbe 88ff dc3c
00000090: b9a1 c0be f8f2 5c3d 75ca 69be af71 62be
000000a0: 2b5c eabe fed7 bf3b f374 3c3d b7b0 e8bd
000000b0: ff9a 443e c939 24be 8c1b 523e 04c1 09bf
000000c0: fb78 b9bb 6ca5 70bd 74a2 7d3d 5cd0 89bd
000000d0: 72b4 ba3e ec58 df3c 25b3 893e 7b87 45bf
000000e0: 6734 26be 02c9 173e 7a4d 02be 4c65 b53e
000000f0: f757 62be fdc7 11bf fe75 0b3e 7b99 813d
00000100: a2c9 80bd 458d 4e3e 24e3 1fbd 346b c03d
00000110: 725b 93be 7080 8cbb 39ca 2dbe d00d 59be
00000120: cdfd 21be a15e 033e fa32 3d3c eafa 40be
00000130: 7429 77bd f917 143d ec11 56be 5f1b c53e
00000140: 793b 2b3e 43ef 21be 534f fcbd a369 86bd
00000150: 0d07 5c3e 8c5c 0f3e 79e0 e13d 7cb9 383e
00000160: 953d 0d3d 5245 69be cfd1 013e 4596 5c3e
00000170: 8800 34be 7fd5 78bc 2a8a af3d 679e ae3e
00000180: 7500 96be c3bb 1f3e 3d33 853d 0aa7 fdbc
00000190: 4b16 1f3e d081 903b e10c de3b a2bb f9bd
000001a0: 7de1 54be 7549 3a3d 64b2 1fbd 3033 353d
000001b0: 79f6 113e b17a 5a3e d561 34be c7e7 ee3d
000001c0: a4cc 42be 583b 023e a126 893d 490f 553e
000001d0: d881 e4be 9dfb 683e 6e77 fb3d baf0 72bd
000001e0: bbc4 16be dfcb 8abe df05 05be 1cbe 8a3e
000001f0: ba45 58bd 9eab bbbd efdf 55be 4db2 903e
00000200: f86f 763e 1e66 a53e 75d7 563e 87f7 6fbe
00000210: f9bc bf3d 0f71 c9bd 8d4b 423d 8b7d 0ebe
00000220: 0fea 803e a55c e6bd 7562 7bbd a390 bb3c
00000230: 8085 a3be 7bea f4bd d3ed 5abe 8941 5a3e
00000240: fb7f a9bd cb1e 0fbe 0638 fd3d d003 bc3e
00000250: 53d0 463e 66ac d7be f56b f6bd 2430 a23d
00000260: 56d7 b6bb 7767 bbbe ba7c 813d 9f6c 7ebe
00000270: 9fce bfbc 476b 68be cd50 0e3e ae34 c7bd
00000280: 71b9 b63e 3c50 883c da6e 9d3d 630f f33d
00000290: b928 393e 1ebc 303e 8bed 7abe 1de1 a3be
000002a0: 3933 a43e 8346 c2bd 37b2 bdbe 5df2 28be
000002b0: 4b03 8f3d 2b26 a53d 3e13 c4bc 5ab1 1f3d
000002c0: d65c 933e a649 023f 8ee2 7f3e 7c70 f63e
000002d0: fd1e 4abe 075a 1fbe 7b22 0dbe 8530 0d3e
000002e0: bffb d0be 8ee7 7ebe 4cdb 41be 82f0 a8bd
000002f0: 82de 2d3d dfbb 2dbe cd2c 003d 64c4 31be
00000300: 4944 a63b fa22 6b3d 2f8a 0d3d 1c62 d7bc
00000310: 9b77 f9bc e476 7fbc f4a1 a6bd 39e1 52be
0.17672227 -0.17168772 -0.36294642 0.050707318 -0.1253808 0.36706346 0.23703547 -0.11597938
-0.22633347 -0.0029898384 0.30080372 -0.104450755 0.09048482 -0.3013342 -0.012059106 -0.16735795
0.26596966 -0.028447066 0.013947802 -0.021773811 -0.4272985 0.05464733 0.081554174 -0.39013243
-0.27171472 0.26874712 0.086330615 0.0039041145 0.418463 0.28059646 -0.29327032 0.1972228
0.11086754 0.095944725 -0.36828974 0.026977316 -0.37623385 0.05394265 -0.22831137 -0.2211368
-0.45773444 0.0058546057 0.04600997 -0.11361831 0.19199751 -0.16037668 0.20518321 -0.53810143
-0.005660174 -0.05875151 0.061922505 -0.067291945 0.36465794 0.027264081 0.2689449 -0.7715985
-0.16230927 0.14822772 -0.12724867 0.35428846 -0.22103868 -0.5694578 0.13619229 0.06328102
-0.062884584 0.20171078 -0.039034978 0.093954474 -0.28780705 -0.004287772 -0.16971673 -0.21196675
-0.15819474 0.12829067 0.011547798 -0.18845716 -0.060342267 0.036155675 -0.20905274 0.38497445
0.16721906 -0.15813927 -0.123198174 -0.06563117 0.21487065 0.14000148 0.11029143 0.18039507
0.034482557 -0.2278035 0.12677692 0.21541698 -0.17578328 -0.01518762 0.085712746 0.34105226
-0.29297224 0.15598969 0.065039136 -0.03096344 0.15535848 0.004410006 0.0067764376 -0.12193991
-0.20789142 0.04548021 -0.038988486 0.04423827 0.14254178 0.21335866 -0.17615445 0.11665302
-0.19023377 0.1271795 0.06696821 0.20806612 -0.44630313 0.22752233 0.12278639 -0.059311606
-0.14723484 -0.27108666 -0.12990521 0.27098167 -0.05280087 -0.09163593 -0.20886205 0.28261033
0.2406615 0.32304472 0.20980628 -0.23434268 0.093622155 -0.09836017 0.047435332 -0.13915078
0.25178573 -0.11248139 -0.061373193 0.022896117 -0.3193779 -0.11958786 -0.21379785 0.21314062
-0.082763635 -0.1397659 0.12364201 0.3672166 0.19415407 -0.42123717 -0.1203231 0.07919338
-0.0055798693 -0.36602375 0.06322618 -0.24846123 -0.023413954 -0.22697173 0.1389801 -0.09726845
0.35688356 0.016639821 0.07687159 0.11868169 0.1808194 0.17259261 -0.24504678 -0.32007685
0.3207033 -0.09486105 -0.3705003 -0.16498704 0.0698305 0.080639206 -0.023934957 0.038987495
0.28781766 0.5089363 0.24988768 0.48132694 -0.19738384 -0.15561686 -0.13782685 0.1378804
-0.40817067 -0.24893019 -0.18931311 -0.08248998 0.042448528 -0.16966198 0.031292725 -0.17360073
0.005074058 0.057406403 0.03455561 -0.0262919 -0.03045254 -0.015592311 -0.08136359 -0.20593728

rnn.bias_hh_l0 f4 [200]
00000000: a85a 0f3e cfef 82bd 9fa6 b4be a2da 333c
00000010: e107 03be 3dd4 c43e 6695 673e 1eb3 1dbe
00000020: bb10 84be fa1f 8d3d 07f2 7f3e 77d3 c6bd
00000030: f70a 0b3e b27c a2be d4c1 8bbc da61 88bd
00000040: 7979 793e 8a51 a9bd 5826 f33d 6e05 34ba
00000050: 65a2 c2be 6961 503c fc7d 103e b5c4 80be
00000060: e03f 20be 5fe9 223e 9c99 903d c7d2 1d3d
00000070: fef9 da3e b319 393e e039 96be 4baa a43d
00000080: fc9f 283e ffa0 063e b6da 8abe 11c1 ff3d
00000090: ca6d a1be d019 173c a846 7bbe f826 49be
000000a0: 4dde c6be 190f 5a3d aa77 cc3d f04a 16be
000000b0: c615 7b3e f9cf e7bd 29a4 263e 4e63 0fbf
000000c0: 3bba 0ebd 1e62 c9bd 6222 423e e6b9 a5bd
000000d0: a449 853e c99c 093e e941 493e a84f 28bf
000000e0: 6dba 19be e0d3 273e ad24 16be 7eb6 ad3e
000000f0: 1d06 3abe 4e80 26bf 46e3 343e bd39 423d
00000100: b7f8 203d c582 953d 90c1 6f3d c9cf 413e
00000110: ec92 3ebe 646d 3a3c 9353 2cbe f0ae 36be
00000120: 09b2 0dbe b3d2 113e efed e2bc 7789 debd
00000130: 94a2 95bd cf28 493d a5f0 d5bd 6537 e33e
00000140: 6132 533e 5cd6 e1bd e3b4 2bbd ec6b b9bd
00000150: 7a53 863e 07fd d53d f338 dc3d 9bf9 e53d
00000160: e985 ae3c 0f7d 65be 97a7 6f3e d4c0 123e
00000170: 38ba 85bd a8c0 9a3a b95e 4bbc 4a2b c73e
00000180: 2551 88be 6f29 1c3e c3fb b23d c909 253d
00000190: d40f dc3d 09c9 a53d 9bfb 9b3d 66b8 01be
000001a0: 8131 75be 32e7 66bc 8fa7 01be bb89 e43d
000001b0: 083c 583e 2f9d 103e af29 53be e200 c53d
000001c0: 90b7 53be 6341 e73d 4b50 9f3d 4318 d13d
000001d0: 45f2 d6be ddbd 873e c7c7 a23d eae5 8fbd
000001e0: e4b6 50be ff5c 94be acc9 15be c6d7 8e3e
000001f0: 732e 1ebd 7b0e 56bd fd26 c6bd 5c7f 213e
00000200: 8376 733e 55bb b93e 74a6 823e 1bc8 8cbe
00000210: c45b d43d dee4 d3bd f56a cd3d d819 8cbd
00000220: 20ab a03e 030c 11be 0121 44be 9c5f df3d
00000230: 56b8 9abe 1cb7 50be d67c 85be 1482 853e
00000240: 92d1 abbd 951c 47bd c3bd 703e 7ffa c13e
00000250: 30a3 393e a0d6 cebe 27d2 23be 1026 f33d
00000260: 37c5 82bd 2269 d9be 51fd e23d 85c7 68be
00000270: 1b61 28bd ad5a 86be 5d06 773d 212d ddbd
00000280: bbc2 a53e a7bc 27bd 36b7 1b3d 0a7d 253e
00000290: 6043 b73d ace2 1e3e 1d61 78be eae1 65be
000002a0: 0e5d 933e 813d 82bb b81d c4be 66f0 4bbe
000002b0: 5fee ab3c f401 833d b3ba bbbc 12b5 f43c
000002c0: dc3e 8b3e af9c 013f 9a6c 7c3e 8155 013f
000002d0: abd9 35be b7fb 1dbe 9288 c8bd 47cf 313e
000002e0: a7b8 ddbe ab64 47be b79d 30be c100 fbbd
000002f0: adef 223d 198c 70be 90b7 943d 496a 25be
00000300: 9a84 14bd c042 df3d 8b5a 6a3d 2035 3b3d
00000310: 5805 78bd 506f 9abd 8c77 d8bd a692 82be
0.13999426 -0.06393396 -0.35283372 0.010977419 -0.12795974 0.38443175 0.22615585 -0.15400359
-0.25794014 0.06890865 0.2499467 -0.097083025 0.13578402 -0.3173576 -0.017060198 -0.06659289
0.24362744 -0.082675055 0.11872548 -0.0006867264 -0.38014522 0.012718537 0.14110559 -0.25150076
-0.15649366 0.15909337 0.07060549 0.03853109 0.42768854 0.1807621 -0.2934103 0.08040293
0.16467279 0.13147353 -0.27119988 0.12487996 -0.31529075 0.009222463 -0.24538672 -0.19643772
-0.38841477 0.053237054 0.099837616 -0.14677024 0.24520025 -0.113189645 0.1627356 -0.560109
-0.034845572 -0.098331675 0.18958429 -0.08092098 0.26032746 0.13438715 0.19654049 -0.65746546
-0.15012522 0.16389418 -0.14662428 0.33928293 -0.18166395 -0.6503953 0.17664823 0.047418345
0.039299693 0.07300333 0.058534205 0.1892692 -0.18610734 0.01137862 -0.16828756 -0.17840171
-0.13837446 0.14240532 -0.027701346 -0.10866063 -0.073064 0.049111184 -0.1044629 0.443782
0.20624687 -0.11027214 -0.041920554 -0.090537876 0.26235563 0.10448652 0.1075305 0.11229249
0.021304088 -0.22410987 0.23403774 0.1433137 -0.06529659 0.0011806684 -0.01241272 0.38900214
-0.26624408 0.1525018 0.08739426 0.040292535 0.107452065 0.08094985 0.07616349 -0.12667999
-0.23944665 -0.014093207 -0.12661575 0.111590825 0.2111665 0.14122461 -0.2062137 0.09619309
-0.20675492 0.112917684 0.077789865 0.10209706 -0.41981712 0.26512042 0.07948261 -0.070262745
-0.20382267 -0.289772 -0.14627713 0.27898997 -0.038618516 -0.052259903 -0.09675405 0.1577124
0.23775677 0.36275735 0.2551762 -0.27496418 0.103690654 -0.10346387 0.10030166 -0.06840867
0.31380558 -0.14164738 -0.19153215 0.10906908 -0.30218762 -0.2038235 -0.26071805 0.26075804
-0.08389582 -0.048611242 0.23509888 0.37886426 0.18128657 -0.4039812 -0.15998136 0.11872494
-0.06385272 -0.42463022 0.110834725 -0.2273236 -0.041108232 -0.26241055 0.060308803 -0.10799623
0.3237513 -0.040951397 0.03801652 0.1616098 0.08948398 0.15516156 -0.24255796 -0.2244946
0.28781933 -0.003974617 -0.38303924 -0.19915923 0.020987688 0.06396857 -0.022916174 0.029871497
0.27196395 0.50629705 0.24650803 0.50521094 -0.17758815 -0.15428053 -0.09791674 0.17364226
-0.4330494 -0.19471996 -0.17247663 -0.12256003 0.039779354 -0.23490943 0.07261574 -0.16153826
-0.03625927 0.109014034 0.057215255 0.04570496 -0.06055197 -0.075407624 -0.10569677 -0.2550251

rnn.weight_ih_l1 f4 [200, 200]
00000000: 8a09 b3bc e84e 423a 619d e43d d9b8 213e
00000010: 3184 0c3e c79a a9bd 3a2e 683d b109 a4bd
00000020: a7bb ae3d 9984 423e be23 e53c 754b 033e
00000030: aa5e 99bc c720 7bbe e8d1 46be 161c 043e
00000040: e8e9 f4bd e410 8bbd 6671 1e3e 74e6 303e
00000050: 3b24 233d 53e9 b93d 0455 9f3b bb8b 113c
00000060: 0c78 adbd e501 5abe 61c2 6dbe 3bb9 b93d
00000070: 859f b33d 629a 00bc e3e9 d5be d9e4 25bd
00000080: bb47 ed3d 1dcf 6dbe a589 173d 3804 103e
00000090: a777 59bb 0821 1dbe 3866 74bd 6e54 083e
000000a0: c28b bcbd 474b 853d 2497 c23c c2a5 213e
000000b0: 794f ab3e 1efe 8cbe 5e67 18be 9e4a dcbc
000000c0: 8e2a fd3d 2aff a13d 325c 053e b229 7b3e
000000d0: a857 123e 3617 8fbd 2544 5d3e 4502 12bd
000000e0: ca5d a2be cd31 71be c986 4f3e 086b 63bd
000000f0: 511a 533e dfce 14bd 6ad1 b93e d2b6 20be
00000100: de4d 15be 4f65 843d 0b95 943d eac3 343e
00000110: 054e cabd 4ab2 2cbe e6b0 f1bd 4756 c1bd
00000120: 920d 20bd 9908 6aba 06bd 4abd 53f3 01bd
00000130: 407c cd3e 445b 8dbc 90c8 31be 4723 153d
00000140: 9cfb 8fbe 2272 7ebe 9351 94be 364e 84bc
00000150: 8703 c73c bd1c 983d 9084 b23e 4391 ddbc
00000160: 9806 39be ffe4 443e b7c3 b93d c8e4 9a3d
00000170: c519 5e3c 644c e3bd 9e16 90be 14a8 0a3e
00000180: efa3 56be b46f fabc 5f91 56bd 567d 52bd
00000190: bda5 6c3e 085d dabd eed9 f9be e378 00bd
000001a0: 1515 4abd 794b 8d3e e66e a1be 1100 7c3d
000001b0: 313f 61bd 435a 63bd 8acb debd 1f25 82bd
000001c0: 1cb8 eabd 6230 7b3e 32b1 063e 526b 573e
000001d0: 9b87 3bbd e87b 743d 7bbe 193d 802c 27be
000001e0: f326 57be b27a 483d 36fe 4abe 915b fcbd
000001f0: bcbb 803d abfd 3bbd c1e3 0bbd 50a3 45be
00000200: b573 d9bd 9200 71bd bc84 193e 5eef 8d3e
00000210: 4eb7 76be 358b d83c 462a e93e baca 07be
00000220: 9097 023e b09f 5abd 865e 1fbd 3614 883c
00000230: c82b bc3d 2024 4b3b 3dfa d0be 8af6 173e
00000240: 111d 9dbe 2d04 913b 2d71 5d3e d01f 133e
00000250: 9f43 e7bd 0497 1bbd a57a 4fbe 7be4 5bbe
00000260: 6368 6ebd d6fe 13be 96fc 053e 732b 49be
00000270: e88e 413e c2ee 8b3c db2b 153c d206 6bbe
00000280: 5cb4 3d3c 8888 abbd 5d51 f33c 2d6b 9f3e
00000290: 0bfe a4be b379 cbbd 7ed6 703d 32ce c3bd
000002a0: 421a 89bc 8e77 98bc 0883 43bc 6d0d 3cbe
000002b0: 90b2 a1bd 51ea 64bb 34d3 9b3e 9e34 413e
000002c0: 2c2c 3b3e c026 e8bd c88b 9dbe 067f 78bd
000002d0: 6419 313d a365 443e 665a 8c3e dfb8 c7be
000002e0: 1939 613c 9faf ebbd caf0 f83d 8d61 233e
000002f0: ad86 663e 2791 68bc 7ec7 e33d 5833 3ebe
00000300: e36d 98be b2db 1abc 2ffd 9cbd afd2 d5bd
00000310: f7bb 09be 3aa9 f13d 4cac cc3b a0c7 663b
00000320: 2e13 17bd c23d 803c 80ef 46bc 60df d43e
00000330: d9bc 45be b784 72be 909e 92be f6d4 52be
00000340: 8c54 12ba 70f1 b73d 6a97 91bc 7f67 37be
00000350: 4e20 d13d 5f21 013f 7e9e 0dbe c1aa 073e
00000360: 5ea7 0f3e 0207 893d 7797 bbbd 0901 cbbd
00000370: c2b7 46bd 77c7 8bbb 6826 be39 29a2 053e
00000380: 3290 a8bc 8132 83be 05e5 7abe 8300 9abe
00000390: c5d3 da3c e652 f9ba 3556 18bd 7068 adbd
000003a0: 3ac7 073e fa75 483d 073f 7cbc 21f7 26be
000003b0: 74b9 203e 75e6 eabc 013a dc3d de56 8b3e
000003c0: 31a7 63be 207e eebd 56be 753d 642c 173e
000003d0: 05d3 873e aa3d 713c 6fed c43d 0256 5abe
000003e0: 8fc5 69bd d9cd 193e c537 d53b 6e82 20be
000003f0: 26c7 9ebe 06b3 4b3e b113 74be 5a71 d93e
-0.021855135 0.00074122706 0.1116283 0.1579317 0.13722302 -0.082814746 0.05668471 -0.08009661
0.085318856 0.18995894 0.027971145 0.12821753 -0.018721897 -0.24524222 -0.1941601 0.12901339
-0.119586766 -0.06790331 0.15472946 0.17275411 0.039829474 0.09077706 0.0048624296 0.008883412
-0.08470163 -0.21289785 -0.23218681 0.09068533 0.0877066 -0.007849308 -0.41780004 -0.04050145
0.11585947 -0.23223539 0.036996502 0.1406411 -0.003318289 -0.15344632 -0.059667796 0.13313457
-0.09206344 0.06508499 0.02375371 0.15785888 0.3345907 -0.27537626 -0.14883181 -0.026891049
0.12361632 0.07909997 0.13023451 0.24527624 0.1429125 -0.06986849 0.21608026 -0.035646696
-0.3171218 -0.23554154 0.2026626 -0.055521995 0.20615508 -0.0363301 0.36292583 -0.1569474
-0.14580485 0.064646356 0.0725499 0.1765286 -0.09878162 -0.16864887 -0.11801319 -0.09440284
-0.03907544 -0.0008927673 -0.049496673 -0.031726193 0.40133858 -0.017255433 -0.17361665 0.036410596
-0.2812165 -0.24848226 -0.28968486 -0.016150575 0.024293674 0.074273564 0.34866762 -0.027046805
-0.18068922 0.1922798 0.09070533 0.07563168 0.013555949 -0.11098555 -0.28142256 0.13540679
-0.20960973 -0.030570842 -0.05238473 -0.05138906 0.23110099 -0.106622756 -0.4879908 -0.031365287
-0.04933651 0.27596644 -0.3152992 0.0615235 -0.054991905 -0.055506002 -0.10878666 -0.063547365
-0.11460897 0.24530175 0.13153532 0.21037033 -0.04578362 0.05968848 0.037535172 -0.16325569
-0.21010952 0.048945136 -0.19823536 -0.123221524 0.062858075 -0.045896214 -0.03415275 -0.1930058
-0.106177725 -0.058838435 0.1499204 0.27721685 -0.24093363 0.026433567 0.45540065 -0.13260928
0.12753129 -0.053374946 -0.038908504 0.0166112 0.09188038 0.0030996874 -0.40815917 0.14840141
-0.30686238 0.0044255466 0.21625204 0.14367604 -0.112921946 -0.037985817 -0.20261629 -0.21473877
-0.05820502 -0.14452681 0.13084635 -0.19645481 0.1890217 0.017081622 0.009104694 -0.2295182
0.011578646 -0.08375651 0.029701883 0.31136456 -0.3222507 -0.09935322 0.058798306 -0.09560813
-0.016736154 -0.018611696 -0.011933096 -0.18364497 -0.07895386 -0.0034929703 0.30434573 0.18867728
0.18278569 -0.11335516 -0.30770707 -0.060668014 0.043237105 0.19179396 0.2741272 -0.39008233
0.013746523 -0.115081064 0.12155302 0.15955181 0.22512312 -0.014194763 0.111220345 -0.18574274
-0.29771337 -0.0094517935 -0.076654784 -0.10440575 -0.13450609 0.117998555 0.0062461253 0.00352142
-0.036883526 0.015654448 -0.012142062 0.41576672 -0.19310321 -0.23683439 -0.286366 -0.2058905
-0.00055820565 0.089815974 -0.017772395 -0.17910574 0.1021124 0.50441545 -0.13829991 0.13248731
0.1402869 0.0669079 -0.09159749 -0.09912307 -0.04851509 -0.0042657214 0.0003626824 0.1305014
-0.02057657 -0.2562447 -0.24501427 -0.30078515 0.026712308 -0.0019021898 -0.03719159 -0.084671855
0.13259593 0.048940636 -0.015395886 -0.1630521 0.15695745 -0.028674344 0.10753251 0.27214712
-0.22231747 -0.1164515 0.05999597 0.14763027 0.26528183 0.0147241745 0.09615599 -0.21321872
-0.057073172 0.15019931 0.0065068924 -0.15674755 -0.31011313 0.19892511 -0.23835637 0.42469293

rnn.weight_hh_l1 f4 [200, 200]
00000000: 42b9 d0bd 84ce be3e dd5c 1f3d ed8d 3c3f
00000010: 3ade d63d 528c cb3e c86e 223d 3240 e1be
00000020: c59d 5fbe ef02 58bf 31d2 bf3d fd24 7f3d
00000030: 7d0f 7e3e 3deb b3be c324 223f 0eb6 31be
00000040: bfa7 a7be 9575 0fbf ec7c 053f 4e62 873e
00000050: 3558 943c 4bf0 133e ee47 9bbc 4d6c 323f
00000060: 1b93 d4be a278 cb3d 2ef1 29bf 9806 e7bb
00000070: f422 bfba c3c7 903c 70a9 18bf 6222 a3be
00000080: aa3b 68bd cc30 f33e e51a ec3d 8f15 8cbe
00000090: 83ab a53e 004e 563e 08e7 09bf 3815 463f
000000a0: 8fc4 76bd c281 963e 1a0b 2bbe 64cb 083f
000000b0: 7779 d9be f70e 803e 0b99 01be 4b25 d73d
000000c0: 8436 833d c786 e4bd ff0e 4bbe 6396 a63c
000000d0: e22e 1bbe a2bb 933e b3a0 863d 4046 293e
000000e0: c160 813e 7e76 323f 1105 97be bee2 243e
000000f0: 2f06 863e 499c 52be 46c5 963e d8d6 b8be
00000100: 60ae 853c 51d0 85be 4ef7 dc3e d512 b9be
00000110: 57c2 40bf 23f4 65bf fcbe 773e c66e 1c3f
00000120: 38e2 9c3d c8af cc3d 4027 5b3e 9d42 733e
00000130: a52c 78be 842d 47be 6e52 98bb c346 9dbe
00000140: 58d0 1ebe 462c 92be 871d 28bf ff49 06be
00000150: 251c e73c b149 083f ba1b a93d 86c1 afbe
00000160: b070 1d3f b6c1 22bf 20e8 3abe ee53 20bf
00000170: 657f 513f 7ee4 b83c 6b99 673e 9705 12be
00000180: e2f6 383f 3868 1c3d e279 1abe f279 803d
00000190: eafa f7bc 9c92 d1bd 3b3a 4abf dc29 31bf
000001a0: 7f49 d0be 07dd 84be 9a1d f63c fe3b 5cbe
000001b0: 1ec9 113f c84c 29bf 05c5 cd3e 64dd d3bb
000001c0: 95d7 4cbc 8df8 2b3d 06e0 403e 8035 6b3e
000001d0: e9cd f43e 097f 23be 4c46 2c3d d446 e13d
000001e0: e91c 6b3d 749c 5a3c c8b1 dbbe 8111 eabd
000001f0: eae7 c43e f16e 77be 6eab 443f db3a 1abe
00000200: 47d6 f13e f69a 94be 9f3b 2a3e 13cd 89be
00000210: 8a4b 1e3e 3396 c63c 181d cf3e f1da 2fbf
00000220: 0cef 663e 9725 0dbf 615e 1b3e 82a2 b9bb
00000230: aef1 3f3e a193 093e 6367 81be 3b9b 4bbf
00000240: bba0 e9bd 6454 813e a39e c73d 1e0e 85be
00000250: 4405 b43d 2d73 07be 892b e23d 3d3d 09bf
00000260: ebcf 7abe 983c 233f e7a9 9ebe c007 e0bd
00000270: 494f d7be ebd3 943e 0ff2 2f3e 40e2 8ebe
00000280: 5b63 263e a697 2b3f fb4e bd3e 074f dabd
00000290: f204 aa3e 0501 723e 5c81 ea3e 27eb 7ebf
000002a0: fb9e cfbe 20bf 2e3e 74d7 25be 449b 89be
000002b0: aaa6 42bc 69ac f33d 0299 afbe f4ce 11be
000002c0: 82ad 6a3f e6f2 073e 1f51 633e 7ad6 fa3d
000002d0: f231 d2be 2c41 febe 6193 b0bd 13c6 d53e
000002e0: 1396 b43d 97a1 cebd 0c61 ee3d 7a72 393e
000002f0: 4f8b 803e 49ee 273f 44f4 9bbe c741 943d
00000300: 0f6e 043e 7663 013e 1f41 0f3e 55b8 293e
00000310: cec9 543e d92a 52be b4e2 85bd a6ea c13d
00000320: 353f 4bbd 743d 3ebe 23e0 aebe 1d9d d43d
00000330: 292f 4c3e 774d b5be f6c9 6c3e 8124 37bf
00000340: 2d0e c7be 397d ddbe 9d1a 1b3d 57f7 58be
00000350: ed48 6cbf 9098 eebd d4bc 59bd e071 e2bd
00000360: 2cd8 98be 45ac 44be d404 cebe 8af4 683e
00000370: 998b ffbd cc3f 93be 3532 cbbe b522 3f3f
00000380: 8f50 ea3c 6e7d 7ebf 88bf c23e 8f39 363d
00000390: 77b0 68be f19f c6be 4cbe a33e ffd6 47be
000003a0: a98e a4be 99f8 6c3d 9604 c23e f414 1abf
000003b0: 5ec4 31be 5aee 80be 8d5e 813e 3fb5 ec3e
000003c0: 2ba2 893e 1f7d b33e 9aac df3e 11f1 973e
000003d0: fbbe db3d 244c d6bd b0d3 50be 5748 e7bd
000003e0: a673 b2bd efa3 36bf b5b1 afbf 3cba e5bd
000003f0: c206 5e3f ba2b 72be d2b5 92be a6ef 623e
-0.10191585 0.37266934 0.03890692 0.7365406 0.10491605 0.39755493 0.03965643 -0.4399429
-0.21837528 -0.84379476 0.09366263 0.062291134 0.24810596 -0.3514041 0.63337344 -0.17354605
-0.32745168 -0.5603879 0.5214374 0.26442188 0.018108467 0.14447133 -0.018955197 0.69696504
-0.41518483 0.09935118 -0.66383636 -0.0070503466 -0.001458256 0.017673379 -0.5963354 -0.3186217
-0.056697525 0.47498167 0.11528567 -0.27360198 0.32357416 0.20928192 -0.5386815 0.7737613
-0.060246047 0.29395872 -0.16703454 0.5343535 -0.42475483 0.25011417 -0.12656038 0.1050516
0.064068824 -0.11158519 -0.1982994 0.020335382 -0.15154603 0.2885409 0.0657362 0.16530704
0.2526913 0.69712055 -0.29496053 0.1610212 0.26176593 -0.2056743 0.29447383 -0.36101413
0.0163185 -0.26135495 0.43157429 -0.3614718 -0.7529654 -0.8982565 0.24193949 0.61106527
0.07660335 0.09994465 0.21401691 0.2375588 -0.2423578 -0.19450957 -0.0046484983 -0.3071805
-0.15509164 -0.28549403 -0.65670055 -0.13114165 0.028211663 0.53237444 0.082572415 -0.34327334
0.6150007 -0.6357683 -0.18252611 -0.62628067 0.81835014 0.022569891 0.22617118 -0.14259945
0.72251713 0.03818533 -0.15085557 0.06273259 -0.030271012 -0.10233042 -0.789951 -0.692045
-0.40681073 -0.2594988 0.030043412 -0.2150726 0.56947505 -0.66132784 0.40189376 -0.006465601
-0.012502571 0.041985083 0.18835458 0.22969627 0.47813347 -0.15966429 0.042059228 0.109998375
0.057400618 0.013342965 -0.42909074 -0.1142912 0.38458186 -0.24163415 0.7682408 -0.15061514
0.47233793 -0.29024476 0.16624306 -0.26914272 0.15458503 0.024241542 0.40451884 -0.68693453
0.22552127 -0.5513548 0.15172721 -0.0056651244 0.18744537 0.13435222 -0.2527419 -0.7953374
-0.1140761 0.25259697 0.097470544 -0.25987333 0.08790067 -0.1322753 0.1104346 -0.5360907
-0.24493377 0.63764334 -0.30989 -0.10938978 -0.42052677 0.2906793 0.17182182 -0.2790699
0.16248839 0.6702827 0.3697432 -0.106596045 0.33206898 0.23633201 0.45801818 -0.99577564
-0.4055098 0.17065096 -0.1619547 -0.2687627 -0.011880556 0.11898119 -0.34296423 -0.14239103
0.91671 0.13276252 0.22198914 0.122479394 -0.4105373 -0.49659097 -0.0862186 0.4175268
0.08817687 -0.100894146 0.11639604 0.18110076 0.25106284 0.6559797 -0.30459797 0.072391085
0.12932609 0.12635598 0.13989685 0.16574223 0.20780107 -0.20524158 -0.06537381 0.09468584
-0.049620826 -0.1857813 -0.34155378 0.103815295 0.19939865 -0.35410663 0.23123917 -0.71540076
-0.38878003 -0.432596 0.037867177 -0.21188103 -0.92298776 -0.11650193 -0.053158596 -0.11056876
-0.29852426 -0.1920634 -0.4023806 0.22749534 -0.12477798 -0.2875961 -0.39686742 0.74662334
0.028602866 -0.9941014 0.38036752 0.044488486 -0.22723566 -0.387939 0.31981122 -0.19515608
-0.3214009 0.05785427 0.37894124 -0.6018822 -0.17360064 -0.25181848 0.2526745 0.4623203
0.26881537 0.35056397 0.43686372 0.29676107 0.10729786 -0.104637414 -0.20393252 -0.112930946
-0.087134644 -0.7134389 -1.3726107 -0.11217162 0.8672906 -0.23649493 -0.28654343 0.22161731

rnn.bias_ih_l1 f4 [200]
00000000: 01a2 32be ec50 eabe 44ba 66be 368b 0f3e
00000010: 2f57 fcbc f867 b8bc eb89 4dbf 2c66 e9be
00000020: 81c6 1d3f 79cb 9fbe 5210 90be 4610 bb3d
00000030: 2262 97be 26c1 b8bd b845 e7be 5ef3 52be
00000040: 50a1 8d3e 6d6f 163f a34b f03e 0313 10bf
00000050: 32c2 eebe cfb0 7cbe 22f2 ed3e 34e2 efbe
00000060: 829d 62bf f982 673e 013f e53d 0d01 473f
00000070: d194 b33e 252a 333f 54d2 c1bd adc0 0cbf
00000080: ac90 b83e 9952 42bd 3afd 36bf 83dc f93e
00000090: 320f 00bf 90fe ddbd 9f4f c2be 453d e13d
000000a0: d72f 843e 7513 83bd e8a5 8bbe 6767 133f
000000b0: 80a0 98be a530 6abe 1e98 10be 62a7 853c
000000c0: 5d2e f13e 2f65 243e a121 143f 7b60 0d3f
000000d0: f0a9 ccbe 03ed a2be e3f1 93bd 3a58 7ebe
000000e0: 77a3 2c3e 1eb1 54be 606b 01bf 06e2 4d3e
000000f0: 19c6 fabe ae3c a93d 7aba 92be 0a33 fdbc
00000100: 6502 f13d 9d36 003f 4db2 94be f72f 533d
00000110: c1e8 00be 15f7 ab3c 446e 48bf d2b5 48be
00000120: 2ed7 40bb 9e71 323c 24aa e53d ef09 48be
00000130: 4b2b 3bbe fbbf d93d df62 fb3e e035 c43e
00000140: e025 d2be a385 7dbe 3400 113e 5f5b fabe
00000150: 2760 523e 5883 803e cd65 5e3e fe1f debd
00000160: 747d 1f3f 1fab cc3e e512 5d3f a79f c23e
00000170: 0047 89be 8ad8 b43e 55c5 83bf 4f29 d0bc
00000180: dcb9 d53d 7eeb f1be 40c1 04bc 83ef babe
00000190: 86f2 45be aebc 1d3e 77c4 fa3e a224 373e
000001a0: 8657 57be e26b ac3e 5334 eabd e427 783d
000001b0: 7f83 aebd 985e 483e dea7 2c3f 06fe 843e
000001c0: 8c9d 09bd fca4 d6be 6e0b af3e 8495 00bf
000001d0: b456 bebe a680 903d 1065 25bf a0a5 5dbf
000001e0: b353 1fbf 8a27 82be 5dae 343f d298 b3be
000001f0: b6ed 52be 0769 38bf 21e1 ec3b c5ec 0cbf
00000200: bbd8 a03d 35a0 033f 614d a9be 2ae7 63bf
00000210: 345c 1b3f d537 49be 60d7 d3bc 4e4f 253e
00000220: dc1d efbe 302d ebbe 10d1 29bf 8f7a f1bc
00000230: 1fc1 a1bc 925f 28bf 3e8a 423f 5db1 5e3e
00000240: 662c 54be ad02 973d 6744 59bc 038c e1bd
00000250: d4a0 15bf 6c64 65bf 52df bd3d 7d8b 4d3e
00000260: 4a4c 98bd 13f6 a33e 71f5 01be c2f1 a3bd
00000270: 5c55 6b3e f1b6 9dbe 329b 0cbf 2fda c23d
00000280: 569c 40bb 9b36 4ebf df48 193f 1f34 cb3e
00000290: c59e 023f 6bba 103f 83d7 dc3d b102 10bf
000002a0: 59a2 883e 39f2 a9bd fca2 713d cd05 253e
000002b0: a11a c73e e71b b7be bde2 973e fb87 26bd
000002c0: dbd7 32be 92a7 f5be 88b1 623e 108b d33d
000002d0: e1d7 a73e ef63 cdbd a397 36be 8441 3b3e
000002e0: 8bc2 e73d ac7b 303f 2b37 173f 8902 a83e
000002f0: 5463 003f 07dc d83e 92fd b6be fe45 683e
00000300: adeb ddbe 1623 e9be 937b 803c f06a a2bd
00000310: 3c4e c93d 2b2f 00be 0f5f e83e 3ee2 33be
-0.17444612 -0.45764863 -0.22531992 0.14017949 -0.030803291 -0.022510514 -0.8028857 -0.45585763
0.6163102 -0.31209925 -0.2813745 0.09133963 -0.29567057 -0.09021215 -0.4517038 -0.2060065
0.27662134 0.5876377 0.46932706 -0.5627901 -0.46632534 -0.24676822 0.46473795 -0.46852267
-0.8852159 0.22608556 0.11193658 0.7773598 0.35074475 0.6998618 -0.09463945 -0.549815
0.36047876 -0.047442053 -0.71480143 0.4880105 -0.50023186 -0.108395696 -0.3795137 0.10998014
0.2581775 -0.064001955 -0.27275014 0.57579654 -0.29809952 -0.22870119 -0.14120528 0.016315166
0.47105685 0.16054223 0.57863814 0.5522534 -0.39973402 -0.3182145 -0.072238706 -0.24838343
0.16859232 -0.2077069 -0.50554466 0.20105752 -0.48979262 0.08263527 -0.28657895 -0.030908126
0.11768035 0.50083333 -0.29042283 0.051559415 -0.12588789 0.020991841 -0.7829325 -0.19600609
-0.0029425132 0.010891346 0.112140924 -0.1953504 -0.18278234 0.106323205 0.4909887 0.38322353
-0.4104452 -0.2475801 0.14160234 -0.48897836 0.20544492 0.25100207 0.21718521 -0.10845946
0.623008 0.39974305 0.86356956 0.3801243 -0.2681198 0.35321456 -1.0294596 -0.025410322
0.104358405 -0.4724998 -0.008102715 -0.36510858 -0.19330797 0.15404007 0.48978016 0.17885068
-0.21029481 0.33676058 -0.11435761 0.060584918 -0.08521175 0.19567335 0.67443645 0.25975055
-0.033597514 -0.41922748 0.34188408 -0.5022814 -0.37175524 0.07055788 -0.64607334 -0.8658085
-0.6223709 -0.2542079 0.7057856 -0.3507753 -0.20598492 -0.7203526 0.007228986 -0.5504878
0.07853838 0.5141633 -0.33066848 -0.89024603 0.60687566 -0.19650204 -0.025859535 0.16143534
-0.46702468 -0.45932913 -0.6633463 -0.029477386 -0.019745408 -0.6577083 0.7599219 0.21747346
-0.20720062 0.07373557 -0.013260937 -0.11013033 -0.5844853 -0.89606357 0.092711106 0.20072742
-0.07436426 0.32023677 -0.12691285 -0.08005096 0.22981781 -0.30803636 -0.5492431 0.095142715
-0.0029390058 -0.8055207 0.5987682 0.39688203 0.51023513 0.5653445 0.10783293 -0.56254107
0.2668636 -0.082981534 0.058993325 0.16115494 0.38887504 -0.35763475 0.29665175 -0.040657025
-0.17465155 -0.47979409 0.22138035 0.103292584 0.3278189 -0.100288264 -0.17831282 0.18286711
0.11316403 0.6893871 0.59068555 0.32814434 0.5015156 0.42355368 -0.35740334 0.2268295
-0.4334387 -0.4553458 0.015683925 -0.07930553 0.09829375 -0.12517993 0.45385024 -0.17566773

rnn.bias_hh_l1 f4 [200]
00000000: a65a 8dbe 3a73 f8be 297f 82be 80aa b03d
00000010: d184 bebd 1370 20bd 5295 64bf 4299 e0be
00000020: 337e 2f3f d9a7 96be 935a 7dbe df4f a63d
00000030: ff33 43be f75e e0bd a215 eabe 28db 41be
00000040: aa5d c43e 3f18 1c3f 8b78 ec3e 64fe 0abf
00000050: 0f21 c2be 8f72 9ebe 0e1c ea3e c788 01bf
00000060: eabb 4abf 5cac 873e be78 553e 9961 343f
00000070: 0d01 a33e ca83 273f f837 0bbe 9167 21bf
00000080: 6223 e13e d4b9 e7bc 5bef 26bf 6b41 ed3e
00000090: 7f40 1abf 38ba e138 8ecb c7be c9ba 643d
000000a0: ba6f 9f3e 1b33 a3bd f621 94be d60a 093f
000000b0: 5038 88be b510 a7be 4803 4bbe 1198 21bd
000000c0: deb7 f43e 0e13 ec3d aa71 0a3f fdca f13e
000000d0: 42ad b0be 968a c5be 4e35 fabd f88c 3dbe
000000e0: c403 4b3e 8225 43be 7e28 dabe d2ec 703e
000000f0: 4ae1 e7be ac2c 923c 8f08 89be f1d3 95bd
00000100: ee2f ae3d 1cc5 ee3e 06dd a5be 37d0 aa3d
00000110: 7941 0ebe dfe2 023d b91d 42bf 1e47 68be
00000120: 421c 5ebd c590 8a3d cb4b 513d 8601 bfbd
00000130: 5ffd 21be b20f fe3d 9df7 de3e 6ade b73e
00000140: 21f0 dabe e0e9 79be 81dc dd3d 6920 e4be
00000150: 2ced 573e 3794 543e fc45 6a3e 41a7 3abe
00000160: 8ee1 2e3f 694a ec3e dc8b 673f e9de d93e
00000170: 72c1 a7be 9e33 a13e fe46 8abf 8d81 9bbd
00000180: e293 d6bc 3718 efbe 704b cb3c 2f7b bcbe
00000190: b563 60be f944 263e 42c8 f13e 0f53 023e
000001a0: ddf8 82be eb4c b53e 324a 01be 360f 123e
000001b0: 65be 14be 452b 763e 84b3 253f 3520 943e
000001c0: 1ed5 00be 0114 fcbe 0835 b53e dd65 ffbe
000001d0: d9ad f9be 7c57 063e 1f07 2fbf c83b 57bf
000001e0: fb81 1dbf e6ab 93be e790 1d3f 4c71 9cbe
000001f0: 61d5 2dbe 03e8 42bf f423 b23c c7b3 0dbf
00000200: be74 17bc 82f2 e13e e91c a0be f10b 7dbf
00000210: a791 173f b485 58be 56d7 1c3d 6cd8 753e
00000220: cb2c 09bf a9a2 c3be 3443 2cbf ccb3 ddbd
00000230: 261b 6cbd 34c0 0fbf 5ce7 3f3f d1f9 7b3e
00000240: 59bd cdbd 2bd5 9b3d 7950 82bd 0c24 52be
00000250: bb67 15bf 6f12 72bf 5b62 0d3e f4c8 0a3e
00000260: 946a 22bd 7400 823e 30ec 2fbe 5eaa ccbd
00000270: e184 993e 5812 cbbe 7d1d 03bf fbd6 a33d
00000280: fdaf 793b 5d5a 33bf 7a43 233f 1fc1 a43e
00000290: 3404 d73e db90 063f 6011 9b3d 3c1c 09bf
000002a0: b890 9b3e 301e a7bd ba43 983d 0067 f53d
000002b0: f765 dd3e 01f7 d6be 5791 ad3e 9859 3e3d
000002c0: 809b 37be 1602 09bf e617 803e 0617 223e
000002d0: 88df b03e 0619 e2bd e2ee fdbd de82 033e
000002e0: 5d36 103e d8a6 383f 38f3 f93e aa0c c43e
000002f0: dad1 f23e 570c de3e 682a cdbe 7c4e 8c3e
00000300: 5037 d2be 408c e1be 6205 d63d 7ff6 36be
00000310: 5b67 9d3c deb5 41be dac1 013f f7bc 87be
-0.27608222 -0.4852541 -0.2548764 0.0862627 -0.093026765 -0.039169382 -0.89290345 -0.43866926
0.6855194 -0.29424933 -0.24741583 0.08120703 -0.19062804 -0.10955613 -0.4571963 -0.18931258
0.3835271 0.60974497 0.46185717 -0.5429442 -0.37915847 -0.30946776 0.4572453 -0.5059933
-0.79192984 0.26498687 0.2084684 0.7046142 0.3183674 0.6543547 -0.13595569 -0.63048655
0.43972307 -0.028286852 -0.6520898 0.46338972 -0.60254663 0.00010763522 -0.39022487 0.055842195
0.31139928 -0.07968732 -0.2893216 0.5353216 -0.26605463 -0.32629934 -0.1982547 -0.039451662
0.4779653 0.11527072 0.5407969 0.4722518 -0.34507185 -0.38582295 -0.12217198 -0.18510807
0.19825655 -0.19057277 -0.42609018 0.2352784 -0.4528907 0.017843567 -0.26764342 -0.07315815
0.085052356 0.46634758 -0.3239519 0.08340495 -0.13892163 0.031954642 -0.75826603 -0.22683379
-0.054226168 0.06765894 0.051097672 -0.093264624 -0.1581931 0.124053374 0.4354829 0.35911876
-0.4276133 -0.24405622 0.108330734 -0.44555977 0.21086568 0.20759664 0.2287826 -0.18227865
0.6831292 0.4615052 0.90447783 0.4255288 -0.32764775 0.31484693 -1.0802915 -0.07593069
-0.026193563 -0.46698162 0.024816245 -0.36812732 -0.21913035 0.16237248 0.47223097 0.12726997
-0.25580493 0.35410246 -0.1262596 0.14263615 -0.14525755 0.24039944 0.64727044 0.28930822
-0.12581298 -0.49234012 0.35392022 -0.49882403 -0.48765448 0.1311931 -0.6837024 -0.84075594
-0.6152646 -0.28842086 0.6154923 -0.3055519 -0.16975929 -0.7613527 0.02174566 -0.55352443
-0.009244142 0.4413033 -0.31272057 -0.98846346 0.5920662 -0.21144754 0.038291298 0.2400834
-0.53583974 -0.38210037 -0.67290044 -0.10825309 -0.05764308 -0.56152654 0.749624 0.24607016
-0.10045881 0.07609018 -0.06363005 -0.20521563 -0.58361405 -0.9455938 0.13807051 0.1355322
-0.039652422 0.2539097 -0.17179942 -0.099934325 0.2998419 -0.39662433 -0.5121687 0.07999989
0.0038099282 -0.7005976 0.63774836 0.3217859 0.41995394 0.5256478 0.075716734 -0.5355871
0.3038385 -0.08160055 0.07434793 0.11982536 0.43241856 -0.41985324 0.33899948 0.046472162
-0.17930412 -0.5351881 0.25018233 0.15829095 0.3454554 -0.11039929 -0.12399079 0.1284289
0.14083238 0.72129583 0.48818374 0.38290912 0.4742573 0.4336879 -0.40071416 0.2740363
-0.41057825 -0.44052315 0.104502454 -0.17867468 0.019214323 -0.18917033 0.5068642 -0.26511356
