Namegenerator/models/rnn_model.pth (torch, 555091 bytes, 11 tensors)

embedding.weight f4 [65, 15]
0.12128959 1.3361387 0.40129644 1.3897254 -0.6030025 1.2801263 0.9721275 1.847696
-0.9321912 0.9339227 -1.0525901 0.76714474 -0.425374 -1.2294226 2.512353 0.8225704
-2.7758024 -1.0271208 -0.10869104 -1.1197412 3.0509422 -1.076335 0.057156768 0.79985005
0.27771056 -0.8977595 0.53225183 -0.23645711 0.49624807 -0.7461722 1.2027409 -0.44229844
-1.2746536 -1.4027263 1.3789608 2.2647164 -0.293785 -0.031223737 0.36763528 0.09453231
1.614554 1.1661502 -0.6510482 1.2172832 1.2702796 -0.049781773 0.031157438 -0.37589985
-2.7182372 0.36132428 -0.79437846 -3.6334677 -1.3545334 -0.6704776 0.49736503 0.65233135
-1.5377434 -0.22410034 0.17911103 1.647912 2.5374994 -2.2263727 -0.4911406 -0.043753818
-2.155627 1.2739805 3.0818677 1.4065356 1.6219518 1.8073617 -0.89441276 0.6021051
-0.6986271 2.2337008 -0.026895335 0.7066145 -0.80661184 -1.3034196 -1.5503436 0.12224588
1.6610562 1.5248241 1.2617022 0.18814696 -0.19688044 0.59566784 1.380167 0.05522206
-0.01693385 -1.2191856 0.35993406 -1.2732844 -2.0839186 -1.9484776 0.6630982 0.6216624
-0.3874723 1.2094281 -0.01304231 1.2046319 0.2388877 -1.3094333 -0.60196996 1.3207784
-0.36681032 0.21884216 -0.33416653 0.6556905 -0.18287505 -0.8369706 0.18437295 -0.19930044
0.30926788 -0.20551923 0.18344738 0.24262981 -0.56803524 -0.6293483 -0.18192163 -1.4480755
-0.17289153 0.34683105 -0.10716154 1.444628 0.031899687 -0.25843492 2.4089644 -1.4852284
0.03198138 -0.31528682 1.4249197 -0.2924854 -0.2210519 2.185342 -0.9438845 -0.0098241605
-0.063108526 -1.613878 0.093878575 1.5257572 -0.0070753796 0.31021184 1.2947178 0.058690425
1.1984744 1.9437718 0.01182898 -0.346869 -0.09406396 0.81562465 2.6810732 -2.4100597
1.1887097 -1.3332173 -0.16542512 0.8320305 -0.5800027 -0.7331109 -1.4811603 -1.2804292
1.4542376 0.9172097 0.62031436 0.46886295 0.30924815 -0.11490053 1.8333366 -0.8915028
0.19878702 -1.2957629 0.30632403 -0.12786883 0.9793306 1.9332936 -1.3698448 -1.1822399
-2.5217292 1.715716 2.189249 -0.8670764 0.58070374 1.7095191 -1.1367041 -1.5080453
-0.13058865 -1.7366409 2.7242384 -1.8584667 1.2886204 -3.3002138 -2.3569007 -0.88961226
-0.31565866 0.9490522 -1.676965 1.4341052 -0.96093345 -0.30656442 -0.7814398 2.0284977
-0.7078404 1.8196101 -0.4177143 0.5442066 1.5855621 -0.14593665 1.2322372 -0.11331637
-2.1388133 -2.7015786 -0.23728944 0.57824624 -2.7561038 -0.29242074 -1.0027423 -0.36530247
1.916871 -0.12717338 0.5472967 0.8650411 0.6148232 -0.050309025 -0.8216746 0.005947774
-0.56607676 -0.5804785 2.0596695 -0.6526575 2.1879206 -0.83175194 0.89893776 -1.2576959
-1.403235 -0.90965044 -1.688278 0.3436392 1.0071046 0.7918479 -0.9416457 -0.46153635
-1.4264333 -1.8482333 -0.3177442 -0.55981827 1.0624228 1.0087472 1.429389 1.0832722
2.3244874 -0.028795023 1.6597 -0.02478908 -0.15081389 0.9027891 -0.5273206 0.081007876
00000000: ad66 f83d 9806 ab3f ba76 cd3e 86e2 b13f
00000010: 5f5e 1abf 2edb a33f 59dd 783f 4d81 ec3f
00000020: 15a4 6ebf 8f15 6f3f 46bb 86bf 9963 443f
00000030: 9fca d9be b85d 9dbf 64ca 2040 f993 523f
00000040: bfa6 31c0 b278 83bf 6899 debd ae53 8fbf
00000050: a342 4340 58c5 89bf 371d 6a3d f9c2 4c3f
00000060: 1430 8e3e 91d3 65bf a841 083f d021 72be
00000070: 3a14 fe3e 2405 3fbf 6af3 993f f174 e2be
00000080: d927 a3bf 898c b3bf ca81 b03f 1df1 1040
00000090: fd6a 96be ecc8 ffbc b13a bc3e 289a c13d
000000a0: b5a9 ce3f 6944 953f 18ab 26bf f0cf 9b3f
000000b0: 8698 a23f f9e7 4bbd e23d ff3c f275 c0be
000000c0: 99f7 2dc0 7fff b83e 635c 4bbf bc8a 68c0
000000d0: 5a61 adbf 6ca4 2bbf a1a6 fe3e 30ff 263f
000000e0: c7d4 c4bf 8f7a 65be e268 373e c8ee d23f
000000f0: 6466 2240 e47c 0ec0 c876 fbbe 3437 33bd
00000100: cbf5 09c0 cb11 a33f 523d 4540 5c09 b43f
00000110: 1e9c cf3f a157 e73f 3cf8 64bf 8f23 1a3f
00000120: 3ad9 32bf f4f4 0e40 9b53 dcbc b0e4 343f
00000130: 1d7e 4ebf 74d6 a6bf a971 c6bf 0c5c fa3d
00000140: 7d9d d43f 702d c33f 757f a13f 99a9 403e
00000150: 079b 49be b07d 183f 50a9 b03f 8730 623d
00000160: dbb8 8abc 460e 9cbf 4749 b83e fcfa a2bf
00000170: ec5e 05c0 b767 f9bf cec0 293f 4425 1f3f
00000180: c562 c6be 8ace 9a3f 6aaf 55bc 6131 9a3f
00000190: fa9e 743e 839b a7bf b41a 1abf 440f a93f
000001a0: 90ce bbbe 2918 603e e017 abbe 55db 273f
000001b0: 9943 3bbe b543 56bf 43cc 3c3e 6a15 4cbe
000001c0: 5c58 9e3e a273 52be a1d9 3b3e f373 783e
000001d0: c26a 11bf f81c 21bf aa49 3abe 8a5a b9bf
000001e0: 7a0a 31be d793 b13e 8277 dbbd 92e9 b83f
000001f0: 3fa9 023d 9551 84be 792c 1a40 f71b bebf
00000200: e8fe 023d 466d a1be c563 b63f a5c0 95be
00000210: 6e5b 62be a5dc 0b40 6aa2 71bf 84f5 20bc
00000220: 0b3f 81bd 8e93 cebf 6943 c03d 034c c33f
00000230: 96d8 e7bb 16d4 9e3e 50b9 a53f 5f65 703d
00000240: 9c67 993f 84cd f83f 57ce 413c d098 b1be
00000250: 9ba4 c0bd c7cc 503f b496 2b40 6b3e 1ac0
00000260: a427 983f dda6 aabf 3465 29be f3ff 543f
00000270: 0f7b 14bf 28ad 3bbf a996 bdbf 1be5 a3bf
00000280: 7524 ba3f 41ce 6a3f eccc 1e3f ce0e f03e
00000290: c655 9e3e f850 ebbd c6aa ea3f 8739 64bf
000002a0: d38e 4b3e 8fdb a5bf 81d6 9c3e 0cf0 02be
000002b0: 69b5 7a3f 2a76 f73f 1357 afbf a353 97bf
000002c0: 0364 21c0 959c db3f a81c 0c40 b8f8 5dbf
000002d0: 00a9 143f 86d1 da3f 857f 91bf a107 c1bf
000002e0: 08b9 05be 404a debf ec59 2e40 3de2 edbf
000002f0: 83f1 a43f b436 53c0 76d7 16c0 a1bd 63bf
00000300: 039e a1be 16f5 723f caa6 d6bf c290 b73f
00000310: bcff 75bf 03f6 9cbe 700c 48bf e8d2 0140
00000320: 0735 35bf fce8 e83f a6de d5be 2051 0b3f
00000330: b3f3 ca3f 6b70 15be f3b9 9d3f 6a12 e8bd
00000340: 51e2 08c0 aae6 2cc0 01fc 72be f207 143f
00000350: 0164 30c0 2cb8 95be dc59 80bf ed08 bbbe
00000360: 075c f53f bd39 02be a31b 0c3f 5573 5d3f
00000370: 0e65 1d3f d610 4ebd 4459 52bf 8be5 c23b
00000380: 68ea 10bf 3d9a 14bf a0d1 0340 9014 27bf
00000390: e406 0c40 b2ed 54bf c920 663f 2efc a0bf
000003a0: 349d b3bf dade 68bf 7e19 d8bf 7af1 af3e
000003b0: cee8 803f 8bb6 4a3f b10f 71bf 7e4e ecbe
000003c0: 5e95 b6bf e992 ecbf 5eaf a2be 4050 0fbf
000003d0: 78fd 873f a11e 813f 38f6 b63f aaa8 8a3f
000003e0: 67c4 1440 8ae3 ebbc 0d71 d43f 7812 cbbc
000003f0: f56e 1abe 301d 673f 7cfe 06bf 75e7 a53d

rnn.weight_ih_l0 f4 [200, 15]
-0.54657024 -0.43368682 1.3159717 -0.6152234 -0.5332164 0.031090243 -0.8587367 0.48780987
0.25875705 0.24671449 0.0192547 -0.015580751 0.15242854 -1.2086136 -0.5680703 -0.5519351
0.14727 0.1726864 0.2535083 0.39772937 0.0018052864 -0.7335463 0.262212 -1.1066864
-0.7048845 -0.0997831 0.2717653 -0.8059452 -0.5963774 0.33575693 0.6112846 0.089326374
-0.3069365 -0.32034808 -0.6524567 0.61089545 -0.6468166 0.61880946 -0.18691097 -0.85282356
0.5514937 0.6319902 -0.25408432 0.25591296 -0.00077203265 -0.06693531 0.059032377 -0.25499812
1.0959245 -1.0099378 -0.58792895 -0.4138127 0.1050653 -0.2642687 0.42811066 -0.0816364
0.41689485 0.7149943 -0.20921001 0.5206847 0.7420216 0.08429427 -1.2081661 -0.28885534
0.24019437 0.4590095 0.47171685 -0.67763823 0.15602434 0.39906776 0.5567555 -0.84989727
-0.5791828 0.28509623 0.11825136 0.58824193 0.55015963 0.54999286 0.033393778 0.14417495
-0.08840154 -1.0456312 -0.12386831 -1.0721446 0.016334621 -0.8961536 0.7916137 0.5829324
-0.8344864 0.036415324 0.41335648 -1.0790504 -1.0441364 0.7486655 -0.52153087 0.25284895
0.0494839 -0.04330077 0.27743423 0.21163537 -0.12580825 -0.4082859 0.43459007 1.4316757
1.0230149 0.073247366 -0.21223031 0.98211503 -0.11581704 -0.47036576 -0.22047998 -0.4726249
0.4479543 -0.27247274 -0.018661754 -0.6947141 -0.041952483 0.9415076 1.0975872 0.6800674
0.6267473 -0.66573143 0.18314768 -0.14092833 0.75767785 0.23185514 -0.35599092 -0.63690984
-1.4740142 -0.80562174 -0.40721697 0.022790842 0.48244157 -0.945926 -0.21671358 -0.029700812
0.12168805 0.13195796 0.46894285 -0.66049474 -0.8407652 -0.40807152 -0.55487335 0.46841192
1.3123549 -0.9058608 0.5246157 0.53899336 0.079518914 -0.038281724 -0.24975885 0.8371919
0.99758196 -0.4413972 -0.7005444 0.17269439 1.0974842 -0.08206771 0.6535902 -0.60847825
-0.62114424 -0.22492716 0.23064883 0.09122257 0.16584833 0.56457436 -0.46742776 -0.7723062
0.029810162 0.44475287 -0.1184411 1.1130724 0.07372267 0.025626726 0.25394943 0.8504604
0.57139343 0.42976183 0.5901383 -0.29637468 -0.7687764 0.5257025 0.14254852 0.070988655
-0.7440607 -0.71306103 0.79103243 0.073736675 -0.030420093 0.19143403 -0.52584743 0.40671206
0.04294773 -0.89075553 0.30535513 0.4631243 1.0832422 0.69523585 0.53576386 -0.4323907
-0.5336368 -0.22463466 -0.35631648 -0.58136237 -0.3279475 -0.43964067 0.16490903 0.110166624
-0.5324664 0.19452055 -0.38421923 -0.25869235 -0.15615396 0.19901766 0.6725309 -0.67951685
0.42263517 -0.7365661 0.6866001 0.11858872 -0.7711303 -0.5619557 0.043859623 -0.22555023
0.7051171 -0.39555642 0.5193971 -0.29032668 -0.4879315 -0.29839507 -0.4943177 0.6203745
-0.57958037 0.2684983 0.55845505 -0.9156351 -0.20087323 -0.4448294 -0.4764611 0.45113736
-1.0277735 -0.3206662 0.88006616 0.80829227 0.09496454 -0.43964455 0.87540144 0.4011069
-0.7530502 0.005878053 -0.1521065 0.9419499 -0.47451165 -0.6778407 0.09057565 0.3282705
00000000: 07ec 0bbf 330c debe c371 a83f 487f 1dbf
00000010: df80 08bf f7b0 fe3c 2bd6 5bbf 37c2 f93e
00000020: ce7b 843e b9a2 7c3e 08bc 9d3c 6846 7fbc
00000030: 3a16 1c3e dab3 9abf 0e6d 11bf 9e4b 0dbf
00000040: f2cd 163e b4d4 303e d7cb 813e 2fa3 cb3e
00000050: 5c9f ec3a b1c9 3bbf a740 863e e6a7 8dbf
00000060: 5073 34bf 155b ccbd d224 8b3e 6d52 4ebf
00000070: 30ac 18bf 55e8 ab3e 267d 1c3f bff0 b63d
00000080: c826 9dbe aa04 a4be 6707 27bf a563 1c3f
00000090: c695 25bf 4c6a 1e3f 9765 3fbe a552 5abf
000000a0: b12e 0d3f 1cca 213f 5717 82be 0607 833e
000000b0: 3c62 4aba 6115 89bd efcb 713d 1d8f 82be
000000c0: 4147 8c3f a445 81bf 8382 16bf 42df d3be
000000d0: 7a2c d73d 3a4e 87be 5231 db3e fc30 a7bd
000000e0: 3e73 d53e de09 373f 263b 56be 984b 053f
000000f0: 21f5 3d3f 79a2 ac3d 30a5 9abf d9e4 93be
00000100: 83f5 753e 4b03 eb3e df84 f13e b379 2dbf
00000110: d8c4 1f3e 9c52 cc3e 8787 0e3f de92 59bf
00000120: 5345 14bf 22f8 913e c52d f23d 0697 163f
00000130: 43d7 0c3f 55cc 0c3f eac7 083d 99a2 133e
00000140: de0b b5bd 3ed7 85bf abae fdbd 093c 89bf
00000150: 2fd0 853c 536a 65bf 32a7 4a3f 0f3b 153f
00000160: e7a0 55bf 3c28 153d 76a3 d33e 531e 8abf
00000170: 43a6 85bf 8ba8 3f3f 0c83 05bf 6b75 813e
00000180: a1af 4a3d 265c 31bd dc0b 8e3e f1b6 583e
00000190: e1d3 00be d90a d1be 9782 de3e 2641 b73f
000001a0: 27f2 823f b702 963d e752 59be e46b 7b3f
000001b0: 7c31 edbd c8d3 f0be 81c5 61be e4fb f1be
000001c0: 445a e53e 8c81 8bbe 89e0 98bc c9d8 31bf
000001d0: 5ed6 2bbd a406 713f bd7d 8c3f e618 2e3f
000001e0: 8372 203f 606d 2abf 118b 3b3e 844f 10be
000001f0: 2df7 413f 6f6b 6d3e 7144 b6be 860c 23bf
00000200: 7fac bcbf 3a3d 4ebf be7e d0be dcb3 ba3c
00000210: 9502 f73e 3528 72bf 2aea 5dbe 1e4f f3bc
00000220: 9637 f93d fd1f 073e 4719 f03e 2f16 29bf
00000230: 633c 57bf c0ee d0be 2e0c 0ebf b0d3 ef3e
00000240: 3ffb a73f 7ee6 67bf 374d 063f 78fb 093f
00000250: d0da a23d 4ccd 1cbd c9c0 7fbe 3552 563f
00000260: 8861 7f3f d0fe e1be e156 33bf ccd6 303e
00000270: 5d7a 8c3f 1e13 a8bd b051 273f 3bc5 1bbf
00000280: 4f03 1fbf 4e53 66be 352f 6c3e e6d2 ba3d
00000290: 25d4 293e f287 103f b152 efbe dcb5 45bf
000002a0: 7134 f43c a6b6 e33e 3f91 f2bd 2879 8e3f
000002b0: e9fb 963d 24ef d13c a905 823e c6b7 593f
000002c0: d746 123f be09 dc3e 4e13 173f 6cbe 97be
000002d0: 88ce 44bf 7094 063f 3df8 113e 8062 913d
000002e0: c37a 3ebf 2b8b 36bf 1a81 4a3f 4103 973d
000002f0: 8f33 f9bc 4807 443e f09d 06bf 903c d03e
00000300: f5e9 2f3d 8e08 64bf 8257 9c3e a11e ed3e
00000310: aea7 8a3f fafa 313f d227 093f 5062 ddbe
00000320: 6c9c 08bf a106 66be 1d6f b6be 2ad4 14bf
00000330: bce8 a7be 9518 e1be eadd 283e 0a9f e13d
00000340: b84f 08bf 6530 473e 62b8 c4be 5373 84be
00000350: d3e6 1fbe 49cb 4b3e fc2a 2c3f d1f4 2dbf
00000360: a363 d83e 998f 3cbf 06c5 2f3f a5de f23d
00000370: cc68 45bf 54dc 0fbf 26a6 333d a4f6 66be
00000380: 8e82 343f 5f86 cabe 35f7 043f b3a5 94be
00000390: 28d2 f9be 3dc7 98be 3617 fdbe ddd0 1e3f
000003a0: 615f 14bf 9c78 893e e9f6 0e3f 1067 6abf
000003b0: b6b1 4dbe aec0 e3be b6f2 f3be 7afb e63e
000003c0: 158e 83bf 5c2e a4be 044c 613f 3eec 4e3f
000003d0: c57c c23d 1719 e1be 4f1a 603f e25d cd3e
000003e0: e6c7 40bf af9c c03b cec1 1bbe a123 713f
000003f0: 31f3 f2be f886 2dbf ba7f b93d 1213 a83e

rnn.weight_hh_l0 f4 [200, 200]
0.072195455 0.11202572 0.33967555 0.14951678 0.029333508 0.13275413 0.46009406 0.32200274
0.045880497 0.082109645 -0.043754574 -0.31812733 -0.1770307 0.112675115 -0.039615273 -0.020389238
0.045067817 0.037187345 0.113767095 -0.19928081 -0.41068286 0.091981374 -0.34227672 0.003352876
-0.22603208 -0.2825419 -0.33214206 0.030584212 0.26215655 -0.025352212 0.3755812 0.28430685
0.04697448 0.03322939 -0.029219793 -0.07002064 0.03503496 0.24101526 -0.018095236 -0.079696745
-0.021154901 -0.32208166 -0.18498284 0.08800464 0.13591267 0.17558113 0.2504244 -0.0037337786
0.15798524 0.24181014 0.5122328 -0.28932884 0.060667153 -0.20760302 -0.2566906 0.04530062
-0.0843225 0.3561547 -0.24305587 -0.04112765 -0.09959692 0.033223167 0.52466077 -0.04902795
0.2818652 0.2509547 -0.23627284 0.10150331 -0.0066807405 0.21243908 -0.034183003 -0.059644297
0.12778006 0.19314831 0.0424017 -0.20038071 0.27763084 0.42661184 0.018280666 0.0054423446
-0.23751667 -0.113220684 -0.0925245 0.1579877 0.022917043 0.15647136 -0.06727194 0.56170064
0.21449158 0.20282966 0.050252926 0.12610517 0.00656281 -0.08163189 -0.05490847 -0.22641818
0.1465986 0.16227871 -0.075940214 -0.084126785 -0.09048465 0.21432333 -0.051241882 0.17200872
0.41501233 -0.094865166 -0.17383641 0.06284443 -0.07474893 -0.00528321 -0.13817199 -0.19885433
-0.04996699 -0.20190398 -0.20130694 -0.07569372 -0.15662655 -0.22283407 -0.173351 0.05348891
0.12430853 0.15400526 -0.12112214 0.3441817 0.21205139 -0.11629562 0.21766825 -0.04881501
0.13311337 -0.3092851 -0.08206508 0.09764825 -0.05223626 -0.031578433 -0.0041998345 -0.18042322
0.076601975 -0.36382225 -0.12114217 0.38073215 0.20010568 -0.048409652 0.04429451 -0.30551058
0.25909126 -0.23772322 -0.061100595 0.08014444 -0.013433274 -0.3054629 -0.04398056 -0.0717196
0.20617859 -0.12098686 0.030933747 0.05935696 -0.3854785 0.14515664 0.1449199 0.257248
0.1778104 0.14155947 0.2794408 0.05987239 0.20867598 0.060662888 0.06412034 0.058414657
-0.49570143 0.15421326 -0.20731561 0.35776004 0.1704822 0.1573862 0.046061475 -4.716101e-05
-0.33709884 0.07929921 -0.24214503 -0.25082335 -0.189354 -0.13886687 0.010601575 -0.35234466
0.021225784 0.17975175 -0.057124265 0.17349623 0.19331743 0.014828869 -0.16392177 -0.026643557
0.3540906 0.1617442 0.25012705 -0.39551708 -0.13860402 0.28248534 0.12151402 -0.13698015
-0.29305512 -0.1460635 -0.21276662 -0.0076699057 -0.19097681 0.053847525 -0.2032043 0.14727958
0.16446458 0.02461367 -0.23001929 0.1259552 -0.09978469 0.021371802 0.37477344 -0.087632574
0.09440419 0.040061943 -0.06419283 -0.1169246 0.030082867 -0.21431638 -0.0904028 -0.16165547
0.2697042 -0.44274488 0.0018058559 0.27443627 0.0996012 -0.041457586 0.079522796 -0.16749123
-0.5278934 -0.010997176 0.02353206 0.06877984 -0.13186635 -0.18479596 -0.015530422 -0.034652296
0.22967505 -0.18130915 0.01494424 -0.1848278 0.09503461 0.03700098 -0.006200029 0.23746178
0.29738086 -0.011517287 0.3992526 0.25341913 -0.04713019 0.1372298 -0.14389785 -0.2846855
00000000: 36db 933d be6d e53d f4e9 ad3e ed1a 193e
00000010: d34c f03c b3f0 073e 7391 eb3e 8bdd a43e
00000020: 30ed 3b3d 1a29 a83d ff37 33bd 96e1 a2be
00000030: 8947 35be 36c2 e63d a043 22bd 5507 a7bc
00000040: 0899 383d c251 183d b9fe e83d 4510 4cbe
00000050: 0645 d2be bb60 bc3d e53e afbe edbb 5b3b
00000060: f474 67be 55a9 90be 860e aabe be8b fa3c
00000070: 6239 863e 71af cfbc 2e4c c03e ab90 913e
00000080: 5068 403d 8a1b 083d 595e efbc fb66 8fbd
00000090: d180 0f3d b4cc 763e 763c 94bc 0c38 a3bd
000000a0: 0b4d adbc e3e7 a4be 246c 3dbe c73b b43d
000000b0: b12c 0b3e 8acb 333e a137 803e 69b2 74bb
000000c0: e2c6 213e 149d 773e b021 033f e922 94be
000000d0: 1f7e 783d e395 54be f36c 83be 258d 393d
000000e0: 46b1 acbd e959 b63e a3e3 78be 7775 28bd
000000f0: 78f9 cbbd 0415 083d 2b50 063f 88d1 48bd
00000100: a350 903e 227d 803e 82f1 71be f8e0 cf3d
00000110: 1dea dabb a189 593e 7a03 0cbd 944d 74bd
00000120: c7d8 023e acc8 453e 68ad 2d3d 9a30 4dbe
00000130: a125 8e3e de6c da3e 56c1 953c b255 b23b
00000140: 9237 73be 3fe0 e7bd 7c7d bdbd 87c7 213e
00000150: 86bc bb3c 073a 203e dfc5 89bd 9dcb 0f3f
00000160: aea3 5b3e 94b2 4f3e 03d6 4d3d b721 013e
00000170: d70c d73b 9f2e a7bd b4e7 60bd 2bda 67be
00000180: f21d 163e 642c 263e 8b86 9bbd aa4a acbd
00000190: 0450 b9bd 9377 5b3e 02e3 51bd 0e23 303e
000001a0: 7f7c d43e ab48 c2bd 2c02 32be 95b4 803d
000001b0: f815 99bd c71e adbb f57c 0dbe 78a0 4bbe
000001c0: 30aa 4cbd ebbf 4ebe 6823 4ebe 4f05 9bbd
000001d0: b662 20be 9d2e 64be ed82 31be 3017 5b3d
000001e0: 7895 fe3d 8eb3 1d3e e20e f8bd 9538 b03e
000001f0: 0024 593e 662c eebd 6de4 5e3e 3ff2 47bd
00000200: df4e 083e 9e5a 9ebe bd11 a8bd cefb c73d
00000210: b0f5 55bd 6358 01bd c49e 89bb ddc0 38be
00000220: 7fe1 9c3d e946 babe 6319 f8bd 53ef c23e
00000230: 81e8 4c3e 3349 46bd 296e 353d e26b 9cbe
00000240: 9ca7 843e b76d 73be 9e44 7abd c522 a43d
00000250: 3c17 5cbc a265 9cbe f624 34bd bae1 92bd
00000260: 7b20 533e f5c7 f7bd c568 fd3c 4920 733d
00000270: 705d c5be f1a3 143e e265 143e 03b6 833e
00000280: ee13 363e f7f4 103e dd12 8f3e c03c 753d
00000290: 28af 553e a679 783d 8651 833d 3544 6f3d
000002a0: 94cc fdbe 15ea 1d3e 8b4a 54be 532c b73e
000002b0: e392 2e3e d929 213e f5aa 3c3d c0ce 45b8
000002c0: 3898 acbe a067 a23d def4 77be eb6b 80be
000002d0: 04e6 41be 1e33 0ebe 3ab2 2d3c 8566 b4be
000002e0: b2e1 ad3c d810 383e 22fb 69bd ffa8 313e
000002f0: 01f5 453e c9f4 723c 1cdb 27be 9743 dabc
00000300: 5d4b b53e 46a0 253e a710 803e 3781 cabe
00000310: 36ee 0dbe eba1 903e 58dc f83d 8644 0cbe
00000320: 520b 96be ac91 15be 7edf 59be d553 fbbb
00000330: 6d8f 43be 398f 5c3d ca14 50be 75d0 163e
00000340: 6769 283e 9ba2 c93c 2d8a 6bbe 66fa 003e
00000350: ea5b ccbd eb13 af3c 4ee2 bf3e b578 b3bd
00000360: fc56 c13d fe17 243d 8877 83bd 2a76 efbd
00000370: 5870 f63c c175 5bbe 1a25 b9bd 0389 25be
00000380: ab16 8a3e 75af e2be 78b2 ec3a e982 8c3e
00000390: b7fb cb3d 6ecf 29bd d9dc a23d d282 2bbe
000003a0: 0624 07bf 802d 34bc 4fc6 c03c 72dc 8c3d
000003b0: f907 07be 273b 3dbe 5073 7ebc 91ef 0dbd
000003c0: f02f 6b3e 1ba9 39be b0d8 743c 8043 3dbe
000003d0: 81a1 c23d 578e 173d 9d29 cbbb 2e29 733e
000003e0: 4e42 983e 01b3 3cbc d66a cc3e 27c0 813e
000003f0: 960b 41bd f885 0c3e f559 13be 4cc2 91be

rnn.bias_ih_l0 f4 [200]
0.42857227 -0.07558372 -0.30941147 0.07895308 0.022441532 0.12524347 -0.079681225 0.05028462
0.027341174 0.21922286 0.05159748 0.103668965 0.09593899 -0.10295061 0.621129 0.18105768
0.20307352 0.05663909 -0.25295264 0.036053523 0.23109028 -0.059890028 0.23462856 0.08320752
0.029197956 -0.19907032 0.05642213 0.087894864 -0.06329232 0.21611269 0.21067663 -0.44538397
-0.12903462 0.35469535 -0.13737984 -0.3798044 0.16668488 0.0342407 0.03181898 0.15390205
0.072494105 0.3575252 -0.14417192 -0.29377964 0.19528493 -0.13677254 0.034579404 0.024531662
-0.18850635 -0.015940351 0.11767705 0.42218998 -0.30500516 -0.26440752 -0.081889525 0.13601007
-0.053300604 0.15834783 -0.25710717 -0.034675844 -0.16279054 -0.08111791 -0.070836596 0.1487384
0.33820653 0.44849086 0.06571599 0.12890151 0.13709694 -0.23238774 -0.09597234 0.03970814
0.29597738 -0.31592205 -0.03359565 -0.09800129 -0.07648167 -0.038596172 -0.14445123 -0.11927019
0.28412262 -0.07048626 -0.020650303 0.2488762 0.04680029 0.114920884 -0.016334169 0.33833137
0.3692815 -0.18716583 0.16180834 -0.18020666 0.016501501 0.22521503 0.015149521 -0.05595668
0.045424074 0.16441287 -0.022776699 -0.16855171 0.23703507 0.22325027 -0.2040137 -0.31892058
0.035880156 -0.50117165 -0.43413472 0.17919789 -0.18736655 -0.06911248 0.2981227 0.18663813
0.17520703 -0.052074812 -0.16296694 -0.16494246 -0.053689376 0.1945753 0.22455072 0.05329487
-0.06847348 0.27338305 0.039479867 -0.09631359 0.16245955 0.014612594 -0.2627301 0.32834345
-0.21327044 0.027054153 0.0009492275 -0.026377015 -0.24879286 -0.02177272 0.10217853 -0.008329827
0.20156442 -0.04860764 -0.20345043 0.24944623 0.3106132 -0.09521475 -0.1432295 -0.20811954
0.014436882 -0.31578058 0.021321137 -0.08426232 0.5920235 0.26817307 0.31678858 0.12105654
-0.16446842 0.22618309 0.062243912 -0.19595373 0.08397127 -0.17240983 -0.037866566 0.23146288
0.38529682 0.121345975 -0.23500276 -0.1613071 0.15678273 0.010109597 -0.33843672 -0.45981237
-0.2050588 -0.09256096 -0.05176345 -0.49562904 0.09792323 0.114866585 0.15079518 0.20400205
0.08540929 -0.12723938 0.103139706 0.046107423 0.053001758 -0.49274048 -0.3004182 -0.11486666
0.3021104 0.099963754 0.25436288 -0.2492071 -0.010479199 0.18209502 -0.3824414 0.29768497
-0.17593054 -0.16163811 0.17129715 0.12718923 -0.1023583 -0.23954026 -0.12490439 -0.14742239
00000000: d36d db3e a3cb 9abd 2e6b 9ebe 27b2 a13d
00000010: 4ed7 b73c d33f 003e e92f a3bd 3ff7 4d3d
00000020: 99fa df3c f57b 603e e157 533d 6550 d43d
00000030: a97b c43d c5d7 d2bd 4f02 1f3f 2f67 393e
00000040: 81f2 4f3e 64fe 673d 0283 81be dcac 133d
00000050: eea2 6c3e 3f4f 75bd 7842 703e b468 aa3d
00000060: 8d30 ef3c 17d9 4bbe e41a 673d 3902 b43d
00000070: 679f 81bd a54c 5d3e 9dbb 573e 5e09 e4be
00000080: a721 04be a19a b53e 4dad 0cbe b975 c2be
00000090: 71af 2a3e fa3f 0c3d 9e54 023d 8098 1d3e
000000a0: ca77 943d 8b0d b73e cea1 13be 496a 96be
000000b0: c6f8 473e 1a0e 0cbe 22a3 0d3d a0f6 c83c
000000c0: cf07 41be 5795 82bc aa00 f13d 4929 d83e
000000d0: a329 9cbe 6c60 87be b2b5 a7bd 3946 0b3e
000000e0: bc51 5abd ef25 223e 8da3 83be 4208 0ebd
000000f0: 90b2 26be 2621 a6bd c712 91bd e14e 183e
00000100: 6829 ad3e 98a0 e53e 1b96 863d c2fe 033e
00000110: 2463 0c3e 0df7 6dbe 258d c4bd 01a5 223d
00000120: 598a 973e 89c0 a1be 989b 09bd e6b4 c8bd
00000130: 6ca2 9cbd 0517 1ebd 06eb 13be ee43 f4bd
00000140: 8578 913e 1a5b 90bd d32a a9bc 67d9 7e3e
00000150: a9b1 3f3d a45b eb3d 3ccf 85bc c539 ad3e
00000160: 7712 bd3e 66a8 3fbe 16b1 253e 1888 38be
00000170: 282e 873c c59e 663e b235 783c d532 65bd
00000180: 980e 3a3d d95b 283e 3396 babc d298 2cbe
00000190: 52b9 723e b89b 643e f8e8 50be 8f49 a3be
000001a0: 12f7 123d c94c 00bf e846 debe a77f 373e
000001b0: 04dd 3fbe d88a 8dbd 8aa3 983e 111e 3f3e
000001c0: 7969 333e 664c 55bd cee0 26be ade6 28be
000001d0: 64e9 5bbd bf3e 473e a0f0 653e b94b 5a3d
000001e0: d33b 8cbd ddf8 8b3e a4b5 213d 0f40 c5bd
000001f0: cc5b 263e a969 6f3c 8f84 86be a21c a83e
00000200: 9163 5abe aca0 dd3c 94d5 783a 9c14 d8bc
00000210: 8ec3 7ebe b45c b2bc fa42 d13d d479 08bc
00000220: e766 4e3e ce18 47bd 4f55 50be d56e 7f3e
00000230: b108 9f3e f3ff c2bd c1aa 12be 4a1d 55be
00000240: ac88 6c3c fead a1be aaa9 ae3c b991 acbd
00000250: da8e 173f fb4d 893e 1d32 a23e 7eec f73d
00000260: 696a 28be 8a9c 673e 79f3 7e3d 18a8 48be
00000270: 21f9 ab3d 348c 30be f919 1bbd 9b04 6d3e
00000280: a045 c53e 3d84 f83d 90a4 70be b02d 25be
00000290: a78b 203e b9a2 253c 9447 adbe 876c ebbe
000002a0: effa 51be 9a90 bdbd e905 54bd 17c3 fdbe
000002b0: f98b c83d 2c3f eb3d 0d6a 1a3e eae5 503e
000002c0: 11eb ae3d 0a4b 02be e93a d33d 23db 3c3d
000002d0: 5f18 593d 7b48 fcbe 6ad0 99be 363f ebbd
000002e0: 37ae 9a3e ccb9 cc3d da3b 823e 2530 7fbe
000002f0: f2b0 2bbc 1e77 3a3e 5ccf c3be 2a6a 983e
00000300: 2327 34be 7684 25be 8568 2f3e e53d 023e
00000310: 3aa1 d1bd 0b4a 75be dfcd ffbd e5f5 16be

rnn.bias_hh_l0 f4 [200]
0.40552106 -0.024133222 -0.36165193 0.07380001 0.084953785 0.13913812 -0.082549684 0.13998738
0.0010765886 0.3095111 0.028581945 0.07482313 0.04246887 -0.13719603 0.6076326 0.27654666
0.23119536 0.05004749 -0.2603426 0.03899077 0.26717103 0.012596261 0.26384047 0.0110303955
0.05673807 -0.24784528 0.09752055 0.035704732 0.024808979 0.21403676 0.16990757 -0.49685013
-0.14594884 0.38794068 -0.11897194 -0.43410787 0.16192988 0.069439076 -0.045441344 0.16988192
0.066797145 0.32846963 -0.10332813 -0.18724656 0.19728455 -0.18406478 0.0070905024 -0.012218778
-0.14794752 -0.07000349 0.07852096 0.4271102 -0.25293338 -0.23512195 -0.088214815 0.21580516
-0.0656725 0.22942017 -0.25881818 -0.05528595 -0.19370876 -0.1497335 -0.0135943955 0.19875646
0.30309385 0.4232485 -0.0090348115 0.016784502 0.14001124 -0.24320126 -0.069167055 0.04442748
0.3686857 -0.23447904 -0.10191267 0.03004479 -0.06367873 0.08252951 -0.12727515 -0.1450058
0.24644876 -0.09232464 -0.008279545 0.1910976 0.08584503 0.00227301 -0.018619396 0.2985532
0.31276318 -0.15598047 0.17526262 -0.13900226 -0.040354077 0.17653786 0.081475824 -0.11368488
-0.0065880283 0.1609127 -0.07083732 -0.26662678 0.31495863 0.12058887 -0.2648357 -0.26233494
-0.0109120365 -0.487688 -0.5368065 0.19396658 -0.10066819 -0.05376618 0.30463615 0.11530855
0.17765863 0.08181924 -0.15420742 -0.14707069 -0.00485707 0.19297984 0.21498518 0.1494448
0.052185625 0.18475719 0.020518776 -0.06782735 0.13594228 0.06128779 -0.29213366 0.38960052
-0.28920513 0.057337414 -0.08645869 0.06477908 -0.2752766 -0.017594747 0.12578215 -0.025715623
0.16278552 0.034319013 -0.20207629 0.22323585 0.31609 -0.15417242 -0.11600092 -0.24953665
-0.077772014 -0.26741034 0.0385075 -0.04427651 0.7047701 0.27922267 0.27958167 0.1143154
-0.0933345 0.22343293 0.08466218 -0.0793616 0.10552683 -0.12259535 0.05170599 0.200618
0.45914108 0.09800272 -0.15429972 -0.19450197 0.1453594 0.12182632 -0.26786298 -0.41915572
-0.27824324 -0.10137185 -0.14914644 -0.3871411 0.06509552 0.20665903 0.105467975 0.16338097
0.042445537 -0.079329 0.20101729 0.1341712 0.16570486 -0.5063215 -0.2068033 -0.03987178
0.3720186 0.17042585 0.34430405 -0.16242251 0.09260122 0.17470449 -0.29728767 0.23677987
-0.17111392 -0.10070397 0.15495037 0.15871692 -0.05204012 -0.2607687 -0.17087065 -0.07054043
00000000: 75a0 cf3e 09b3 c5bc 712a b9be 7624 973d
00000010: 40fc ad3d 397a 0e3e cf0f a9bd da58 0f3e
00000020: 521c 8d3a 3d78 9e3e af24 ea3c df3c 993d
00000030: d6f3 2d3d 1e7d 0cbe cf8d 1b3f 8697 8d3e
00000040: 7abe 6c3e 99fe 4c3d a04b 85be c9b4 1f3d
00000050: a4ca 883e 8c60 4e3c 1916 873e d5b8 343c
00000060: 2e66 683d 27cb 7dbe dbb8 c73d 203f 123d
00000070: 333c cb3c 742c 5b3e 40fc 2d3e 2463 febe
00000080: 9d73 15be 29a0 c63e 8fa7 f3bd 6343 debe
00000090: f2d0 253e 1336 8e3d b420 3abd 87f5 2d3e
000000a0: f1cc 883d 2c2d a83e b39d d3bd 90bd 3fbe
000000b0: f604 4a3e 7a7b 3cbe 7257 e83b 4531 48bc
000000c0: 8e7f 17be fd5d 8fbd 99cf a03d 30ae da3e
000000d0: 7c80 81be cfc3 70be f8a9 b4bd 07fc 5c3e
000000e0: 4e7f 86bd 1fed 6a3e d183 84be 8573 62bd
000000f0: 975b 46be bd53 19be 07bb 5ebc d086 4b3e
00000100: 1e2f 9b3e 07b4 d83e bf06 14bc a77f 893c
00000110: 1b5f 0f3e c009 79be 75a7 8dbd 97f9 353d
00000120: 5fc4 bc3e 461b 70be 97b7 d0bd 7e20 f63c
00000130: fe69 82bd 3b05 a93d 6b54 02be 677c 14be
00000140: 105d 7c3e b314 bdbd eea6 07bc 17af 433e
00000150: 85cf af3d c8f6 143b b487 98bc f7db 983e
00000160: 7f22 a03e 58b9 1fbe 0b78 333e 9c56 0ebe
00000170: 514a 25bd 57c6 343e ccdc a63d 9ed3 e8bd
00000180: 63e0 d7bb 4dc6 243e 2813 91bd 4e83 88be
00000190: 4242 a13e 4cf7 f63d 8b98 87be c450 86be
000001a0: 66c8 32bc 3eb2 f9be 276c 09bf 2d9f 463e
000001b0: 202b cebd ed39 5cbd 45f9 9b3e e426 ec3d
000001c0: 25ec 353e d890 a73d 8de8 1dbe b399 16be
000001d0: 0e28 9fbb 829c 453e 1325 5c3e 0f08 193e
000001e0: 98c0 553d fd30 3d3e fe16 a83c 11e9 8abd
000001f0: 7434 0b3e e808 7b3d 8b92 95be b879 c73e
00000200: b212 94be a3da 6a3d 4111 b1bd e5aa 843d
00000210: 0ef1 8cbe dc22 90bc 09cd 003e 92a9 d2bc
00000220: 3fb1 263e 1892 0c3d 16ed 4ebe f097 643e
00000230: 8cd6 a13e 60df 1dbe e491 edbd 8986 7fbe
00000240: ef46 9fbd 02ea 88be 0aba 1d3d 495b 35bd
00000250: d06b 343f 46f6 8e3e 5425 8f3e 311e ea3d
00000260: 2926 bfbd 9acb 643e 5d63 ad3d 5688 a2bd
00000270: 731e d83d 4513 fbbd a9c9 533d ce6e 4d3e
00000280: 8a14 eb3e a6b5 c83d bf00 1ebe 862b 47be
00000290: 18d9 143e 1480 f93d 5625 89be 949b d6be
000002a0: e675 8ebe 0b9c cfbd d8b9 18be 5c37 c6be
000002b0: cd50 853d 6d9e 533e 98ff d73d 574d 273e
000002c0: 5fdb 2d3d 3e77 a2bd 7ad7 4d3e 2d64 093e
000002d0: 89ae 293e 499e 01bf 3fc4 53be 9750 23bd
000002e0: 3979 be3e 1d84 2e3e 9f48 b03e 1652 26be
000002f0: b5a5 bd3d bce5 323e 1736 98be 6c76 723e
00000300: 7d38 2fbe e23d cebd 4fab 1e3e b086 223e
00000310: 0528 55bd 7a83 85be b7f8 2ebe 8077 90bd

rnn.weight_ih_l1 f4 [200, 200]
-0.19471772 -0.014656914 -0.22141175 0.07902423 -0.09590001 0.3862511 0.031209257 0.27069423
-0.1752815 0.10074754 -0.059217896 -0.12869975 0.30444002 0.08778624 0.2418003 0.13112515
0.068926565 0.2836645 -0.3529195 -0.29614 0.12050899 -0.15090373 -0.09194358 -0.16270371
0.09169978 -0.11225763 0.024805946 0.05720423 -0.1826619 0.18035273 0.017357137 -0.36924466
-0.23379838 -0.019504506 -0.094237946 0.07389741 -0.07129987 0.015285741 -0.07453918 -0.17260462
0.32678536 0.10420519 -0.1408267 -0.22063737 0.192714 -0.25372148 -0.06360727 0.24650112
0.10267767 0.1543316 0.112484485 0.002326392 -0.15381958 -0.2975331 -0.10737977 0.02078341
0.027380489 0.08940447 -0.15891537 -0.04646651 0.24524702 0.10760177 0.12160887 0.0006765856
-0.011300493 -0.076394826 -0.094353914 -0.08838519 0.25321493 -0.09847781 0.03910835 -0.042440243
0.03460298 -0.08251122 0.0071976455 -0.08930373 -0.19601241 -0.12919767 0.3582008 -0.14221992
0.2743011 -0.044047326 0.09031237 -0.030294158 0.35192823 0.05709777 0.05084669 0.22756325
-0.15882957 0.1986733 0.07525154 0.04944759 0.31179726 -0.008542561 -0.3444164 -0.1549445
0.07577813 -0.14525959 -0.07455549 0.06170598 0.196447 -0.18612565 0.0056908103 -0.32607558
-0.17145318 0.11477178 0.011909393 0.4764496 0.20599295 -0.07263887 0.38805035 0.024312519
0.05298856 -0.01802546 0.09640732 -0.1261332 -0.20751376 0.21668005 0.080177054 0.09306175
-0.22768776 0.05820215 0.009815834 -0.011947293 0.13140756 -0.0025930032 -0.008458601 0.25506607
0.0062767547 0.1359064 -0.032083467 0.26549798 -0.34764096 -0.11535672 -0.032366727 -0.1365599
-0.07128016 0.18852077 0.09694448 -0.27364245 0.2931791 0.08991501 0.054880824 -0.041676167
-0.008941893 0.12368479 0.07400087 -0.2734224 0.16459234 0.042214185 0.010410973 0.04378212
0.06850722 0.19603886 0.27368355 -0.3345444 0.068153456 0.18857865 0.07082922 0.15859273
0.0029703511 -0.026849777 -0.0556105 0.15194744 0.16497813 -0.39107248 0.042804305 -0.23782301
-0.09622425 0.17825004 0.3641035 0.17588304 -0.37014022 -0.20144679 0.006425679 -0.11355911
0.016291993 0.16723442 0.1841493 -0.15777504 -0.15912071 -0.09080218 -0.0933752 0.092476726
0.326033 0.23447174 0.27108428 -0.1444246 0.09735599 -0.098889925 0.13365573 0.1702759
-0.047020365 -0.20480235 -0.15166906 0.23880616 0.27973545 -0.0037180386 -0.23420109 -0.27035645
0.12952936 0.08817247 -0.23494108 0.05147199 0.09355314 0.14178954 -0.011101561 0.037310775
-0.024127392 0.007412743 -0.16381842 -0.14949599 0.05536541 0.14587277 -0.16332114 0.038659085
-0.12579206 -0.124736525 0.14941093 0.009149737 -0.051298298 -0.35036495 -0.03702693 0.05667986
-0.11200524 -0.26957694 -0.13099313 0.17731522 -0.19354717 0.22742817 0.0036128028 -0.12109816
0.05419716 -0.031165272 0.056071047 -0.08256505 0.059475698 -0.021620361 0.005114158 0.042805087
-0.03463713 -0.07682286 0.18730997 0.1776009 0.14917637 -0.076964386 -0.030133974 0.111560464
0.42677188 0.2638078 0.055886265 -0.12458044 0.08341306 0.10082005 0.09883324 0.011115059
00000000: 1564 47be 8e23 70bc c3b9 62be 75d7 a13d
00000010: 3967 c4bd b4c2 c53e 8eaa ff3c 6f98 8a3e
00000020: fe7c 33be ba54 ce3d 778e 72bd dec9 03be
00000030: 90df 9b3e 46c9 b33d 7f9a 773e ac45 063e
00000040: 5f29 8d3d 793c 913e ddb1 b4be a99f 97be
00000050: 6bcd f63d 8286 1abe ea4c bcbd cd9b 26be
00000060: 18cd bb3d 54e7 e5bd d735 cb3c fc4e 6a3d
00000070: b90b 3bbe 63ae 383e 8e30 8e3c a30d bdbe
00000080: d868 6fbe eac7 9fbc d3ff c0bd 8657 973d
00000090: ab05 92bd 0b71 7a3c ffa7 98bd 44bf 30be
000000a0: 6950 a73e 8869 d53d e034 10be c3ee 61be
000000b0: d256 453e c8e7 81be 8744 82bd ca6a 7c3e
000000c0: ac48 d23d 1a09 1e3e 445e e63d 6276 183b
000000d0: e182 1dbe 4256 98be ede9 dbbd f841 aa3c
000000e0: 0c4d e03c b119 b73d b6ba 22be ab53 3ebd
000000f0: 0922 7b3e 515e dc3d 120e f93d e45c 313a
00000100: b425 39bc e474 9cbd a03c c1bd 4b03 b5bd
00000110: 63a5 813e bcae c9bd 1430 203d d2d5 2dbd
00000120: dbbb 0d3d a4fb a8bd 3ada eb3b e0e4 b6bd
00000130: 7ab7 48be 654c 04be 1866 b73e 19a2 11be
00000140: 3271 8c3e f86a 34bd b1f5 b83d 742b f8bc
00000150: f02f b43e 5adf 693d 9e44 503d 5706 693e
00000160: 38a4 22be 0371 4b3e 7b1d 9a3d 8e89 4a3d
00000170: e4a3 9f3e 19f6 0bbc 5957 b0be c5a9 1ebe
00000180: 9031 9b3d eebe 14be 8cb0 98bd 69bf 7c3d
00000190: 6729 493e b997 3ebe fa79 ba3b 61f3 a6be
000001a0: 6c91 2fbe 780d eb3d 9d1f 433c 34f1 f33e
000001b0: d1ef 523e b0c3 94bd 89ae c63e 0c2b c73c
000001c0: 880a 593d 21aa 93bc 3371 c53d 1029 01be
000001d0: 7d7e 54be 60e1 5d3e de33 a43d 2997 be3d
000001e0: fb26 69be 6165 6e3d 98d2 203c 94be 43bc
000001f0: b48f 063e 60ef 29bb f295 0abc 0598 823e
00000200: 3cad cd3b 0c2b 0b3e f469 03bd 5aef 873e
00000210: fffd b1be 2540 ecbd f992 04bd 5cd6 0bbe
00000220: 55fb 91bd 970b 413e d48a c63d dd1a 8cbe
00000230: 921b 963e 5c25 b83d b7ca 603d a1b4 2abd
00000240: 0481 12bc 744e fd3d c58d 973d 05fe 8bbe
00000250: e58a 283e c8e8 2c3d c992 2a3c e154 333d
00000260: 834d 8c3d 69be 483e 4020 8c3e 6749 abbe
00000270: 0a94 8b3d c31a 413e e90e 913d 2266 223e
00000280: 39aa 423b 10f4 dbbc d6c7 63bd 1c98 1b3e
00000290: 07f0 283e a73a c8be 9153 2f3d e087 73be
000002a0: 3811 c5bd 2e87 363e c66b ba3e af1a 343e
000002b0: 0583 bdbe 1148 4ebe 818e d23b ae91 e8bd
000002c0: c976 853c 803f 2b3e a291 3c3e c88f 21be
000002d0: 8af0 22be 7ef6 b9bd 7f3b bfbd 7064 bd3d
000002e0: cced a63e 5c19 703e 8fcb 8a3e 0be4 13be
000002f0: 9462 c73d cd86 cabd 0cdd 083e ce5c 2e3e
00000300: 6d98 40bd b5b7 51be 224f 1bbe 9a89 743e
00000310: 7c39 8f3e 56aa 73bb 69d2 6fbe 296c 8abe
00000320: 58a3 043e c593 b43d 6594 70be 4bd4 523d
00000330: ca98 bf3d 4731 113e 52e3 35bc 2fd3 183d
00000340: cfa6 c5bc 98e6 f23b 04c0 27be 7a15 19be
00000350: d7c6 623d ac5f 153e a83d 27be fd58 1e3d
00000360: a2cf 00be dd75 ffbd 2eff 183e c7e8 153c
00000370: 2a1e 52bd 0963 b3be 8da9 17bd 2429 683d
00000380: 0163 e5bd fd05 8abe 1023 06be 1f92 353e
00000390: 3b31 46be eee2 683e c6c4 6c3b 5002 f8bd
000003a0: d7fd 5d3d 504e ffbc c1aa 653d dd17 a9bd
000003b0: ca9c 733d 2f1d b1bc ab94 a73b 6354 2f3d
000003c0: aadf 0dbd 4e55 9dbd 2fce 3f3e 03dd 353e
000003d0: b1c1 183e 819f 9dbd 86db f6bc d079 e43d
000003e0: d881 da3e d111 873e ffe8 643d 0824 ffbd
000003f0: 77d4 aa3d be7a ce3d 1569 ca3d f01b 363c

rnn.weight_hh_l1 f4 [200, 200]
0.053753003 0.00014874872 0.054875277 0.19649889 -0.35057986 -0.07155038 0.4013297 0.024624607
0.33025143 0.4090633 -0.12236641 0.14255868 -0.009805528 0.2991736 -0.38235894 0.34893894
-0.21713239 0.40601462 -0.1759162 0.48010138 -0.21350753 0.041216355 -0.23106964 -0.13453123
-0.1071384 -0.25943637 0.13298103 0.8737882 -0.2833174 0.030014623 0.27349192 0.20001383
-0.122248515 0.14715008 -0.10530392 0.04793507 -0.03380721 0.12613901 -0.192407 0.17965734
-0.12962149 -0.05267694 0.13321254 -0.15837044 -0.11556254 -0.08868877 -0.020899635 0.027802993
-0.022330876 -0.100175746 0.043166038 0.31000525 0.08751806 -0.6357325 -0.3359143 -0.08722542
0.6117055 -0.027628794 -0.40311757 -0.0046062903 0.25854295 -0.11665299 0.33504316 -0.8155696
-0.5466293 0.67686266 0.2166959 0.18024687 0.17846948 -0.047277972 0.23107141 -0.34811303
-0.31915876 -0.25169364 -0.05891261 -0.060966153 -0.052703097 0.4066574 -0.08323771 0.29415986
0.15817447 -0.85625464 0.08820371 -0.75768626 0.044206835 -0.11218616 0.22052836 -0.16252764
0.1635047 0.31814772 -0.29070035 0.31430727 -0.14545955 0.1425429 0.44431537 0.108332954
-0.19775592 -0.04369266 -0.3707319 0.119660266 -0.20765021 0.17486715 -0.13877892 0.8509025
-0.3262695 -0.15578686 -0.20021242 -0.07393427 -0.38055566 -0.16703656 0.013106625 -0.38131982
-0.7201986 -0.14262877 -0.4483811 0.20677252 0.16210227 -0.88408774 0.6165189 0.30044973
-0.4960572 0.05808048 -0.15126073 0.17184101 0.02189136 -0.12746646 0.14250666 0.05294601
-0.12912753 0.26079324 -0.18330337 0.2734545 -0.12949085 -0.11546787 -0.17763156 -0.035631016
0.36869845 0.5552954 -0.11913065 0.08882147 0.023392778 0.36489427 0.19711453 0.13083471
-0.4128963 0.08747241 0.19901478 -0.41674447 0.33550894 0.1433425 0.38753492 0.010400239
-0.5913372 -0.33422065 0.46644193 -0.06324952 -0.24797283 -0.27372906 -0.4524479 0.35565397
-0.29717672 -0.2052799 -0.2785934 -0.15449397 -0.1022997 -0.033078015 0.048448794 0.47458127
-0.015029697 -0.12676832 0.101945326 0.57142377 -0.28165725 -0.40041333 -0.53944826 0.54031765
-0.044503007 -0.24090186 -0.2254928 0.12139846 0.30818272 0.60073245 0.12743394 0.103961445
0.06992654 -0.4423057 -0.06363181 0.19929235 0.41899693 -0.34819114 -0.71935207 0.075067
0.022057788 0.052355137 0.08399928 -0.29227197 -0.053124703 -0.34652385 0.32595998 0.24019161
0.25726277 0.8064601 -0.29158333 -0.028832102 -0.784224 -0.49935627 0.5483474 -0.2536571
-0.47710264 0.00745522 -0.30637732 -0.29540375 -0.31873602 -0.25556886 0.46928763 0.23635757
0.14494228 -0.4433905 0.27715597 0.13073719 0.58915734 -0.78922457 0.07117186 -0.46610638
0.18479648 -0.1683795 -0.10822022 0.2523823 -0.18813792 0.21525013 -0.2478664 -0.22638369
0.1448534 0.3032198 0.07698764 0.335644 0.2964883 -0.42804387 0.10436848 0.3574925
-0.26640043 -0.065568246 -0.60648715 -0.11961556 -0.026456984 -0.09808811 0.084143355 0.16556533
-0.15457755 -0.23383239 -0.15422499 -0.61589557 0.14443973 -0.4004446 -0.08081738 0.049779743
00000000: 1c2c 5c3d 6ef9 1b39 e6c4 603d 0137 493e
00000010: 347f b3be 0189 92bd 167b cd3e 8bb9 c93c
00000020: b716 a93e bf70 d13e 3e9b fabd e7fa 113e
00000030: 5ea7 20bc 482d 993e 8dc4 c3be 20a8 b23e
00000040: f457 5ebe 26e1 cf3e 6023 34be d9cf f53e
00000050: b8a1 5abe 7bd2 283d 859d 6cbe 8ec2 09be
00000060: 616b dbbd d8d4 84be 2e2c 083e 95b0 5f3f
00000070: fa0e 91be 3ae1 f53c 2207 8c3e 6dd0 4c3e
00000080: 6e5d fabd 83ae 163e 95a9 d7bd 9057 443d
00000090: 6e79 0abd 962a 013e 5706 45be 18f8 373e
000000a0: 7fbb 04be c6c3 57bd de68 083e dc2b 22be
000000b0: 0eac ecbd 75a2 b5bd b635 abbc 1ac3 e33c
000000c0: 3eef b6bc f128 cdbd dfce 303d 02b9 9e3e
000000d0: ab3c b33d 5dbf 22bf f6fc abbe 3ea3 b2bd
000000e0: bb98 1c3f c855 e2bc 6d65 cebe 5df0 96bb
000000f0: be5f 843e c3e7 eebd c78a ab3e 2bc9 50bf
00000100: e6ef 0bbf df46 2d3f 88e5 5d3e a392 383e
00000110: b4c0 363e 8ca6 41bd fc9d 6c3e df3b b2be
00000120: c768 a3be fddd 80be 594e 71bd a5b7 79bd
00000130: 34df 57bd 6635 d03e 8878 aabd 1f9c 963e
00000140: 7df8 213e 8133 5bbf 26a4 b43d baf7 41bf
00000150: 3a12 353d dcc1 e5bd 30d2 613e a56d 26be
00000160: c76d 273e 42e4 a23e add6 94be e2ec a03e
00000170: 59f3 14be c4f6 113e 4e7d e33e abdd dd3d
00000180: 8780 4abe 13f7 32bd 92d0 bdbe 7110 f53d
00000190: 42a2 54be 6010 333e 101c 0ebe bfd4 593f
000001a0: cc0c a7be 9786 1fbe 7c04 4dbe da6a 97bd
000001b0: 31d8 c2be a20b 2bbe 2bbd 563c 5a3c c3be
000001c0: ef5e 38bf 470d 12be 3592 e5be 2dbc 533e
000001d0: 23fe 253e 9353 62bf 2fd4 1d3f 8cd4 993e
000001e0: 36fb fdbe cce5 6d3d 18e4 1abe 17f7 2f3e
000001f0: 8255 b33c 9186 02be 44ed 113e eadd 583d
00000200: 023a 04be b186 853e e1b3 3bbe 3a02 8c3e
00000210: 4099 04be 6b7a ecbd 0ce5 35be d4f1 11bd
00000220: 0bc6 bc3e d727 0e3f c5fa f3bd 08e8 b53d
00000230: 36a2 bf3c 6cd3 ba3e 64d8 493e 89f9 053e
00000240: 2567 d3be bc24 b33d 88ca 4b3e 885f d5be
00000250: d4c7 ab3e 60c8 123e fa6a c63e c465 2a3c
00000260: e061 17bf f81e abbe 7ad1 ee3e f788 81bd
00000270: 97ec 7dbe 3726 8cbe 40a7 e7be 4718 b63e
00000280: 8c27 98be e534 52be cba3 8ebe ab33 1ebe
00000290: 8182 d1bd d07c 07bd 3e72 463d 51fc f23e
000002a0: 1e3f 76bc 8ecf 01be b6c8 d03d d448 123f
000002b0: 6135 90be fa02 cdbe 4819 0abf 4252 0a3f
000002c0: c948 36bd faae 76be 96e7 66be c19f f83d
000002d0: 20ca 9d3e 9ac9 193f 0b7e 023e bde9 d43d
000002e0: a535 8f3d e575 e2be 6551 82bd 4b13 4c3e
000002f0: c486 d63e 1c46 b2be 7527 38bf babc 993d
00000300: 89b2 b43c 5772 563d d107 ac3d aca4 95be
00000310: 4a99 59bd 936b b1be 3ae4 a63e caf4 753e
00000320: f2b7 833e 2b74 4e3f 694a 95be 4d31 ecbc
00000330: e7c2 48bf a0ab ffbe 7f60 0c3f 58df 81be
00000340: cc46 f4be eb4a f43b 7ddd 9cbe 293f 97be
00000350: 5e31 a3be ecd9 82be 7846 f03e b807 723e
00000360: c06b 143e 1404 e3be 63e7 8d3e f8df 053e
00000370: 04d3 163f 9f0a 4abf 8dc2 913d 7fa5 eebe
00000380: 4a3b 3d3e ad6b 2cbe 90a2 ddbd 4138 813e
00000390: 3aa7 40be 886a 5c3e b1d0 7dbe 20d1 67be
000003a0: 7354 143e a03f 9b3e b2ab 9d3d 88d9 ab3e
000003b0: 51cd 973e 9128 dbbe 24bf d53d 4209 b73e
000003c0: a365 88be a548 86bd be42 1bbf 01f9 f4bd
000003d0: 51bc d8bc 6be2 c8bd 5a53 ac3d f589 293e
000003e0: 9449 1ebe c271 6fbe 28ed 1dbe 55ab 1dbf
000003f0: 02e8 133e 1307 cdbe 9583 a5bd d8e5 4b3d

rnn.bias_ih_l1 f4 [200]
0.13300562 0.48297584 -0.30349454 -0.04842044 -0.20473857 -0.4682543 0.6016068 -0.1226436
-0.14465992 -0.052591655 -0.24090283 0.47763225 0.27510667 -0.48674637 0.15213808 -0.3264409
0.15160385 -0.124095336 0.21514586 0.018025078 -0.36592957 -0.23800965 -0.22602576 0.06838912
0.702263 -0.2156059 0.74160403 -0.12089495 0.42902023 0.04943483 0.33779696 0.064228974
0.0940956 0.5009246 0.15820208 0.052881874 0.3726471 -0.021621516 0.052954208 0.26872948
-0.14987367 -0.16224849 0.23629189 -0.37233847 0.33651334 0.05448794 -0.1045624 0.14414637
-0.28480574 -0.5065538 0.026005168 0.38667545 0.25374016 -0.683244 -0.45228904 -0.4989722
0.42737105 0.27247477 -0.50989336 0.5022625 0.12835123 -0.2160985 0.29025385 -0.37201276
-0.22070101 0.62955964 -0.103538044 0.43015656 -0.16299117 0.41257024 -0.25663203 0.08321154
0.62872255 0.09843569 -0.2030042 0.029418858 0.10682726 -0.27262205 0.05850202 0.35004115
-0.30662286 -0.7364406 -0.21303664 -0.35840195 -0.17215064 0.72320914 0.03865433 -0.452359
0.29405102 0.44126514 0.3356238 0.24458256 -0.50876105 -0.3284938 -0.19193432 -0.7490737
0.44855282 0.5304835 0.48547825 -0.041133743 -0.0802573 0.10362027 -0.23520681 0.41575947
-0.33003023 -0.2714717 0.032645863 0.6985639 0.08018019 0.2518035 0.1592952 0.1706503
-0.1312732 0.68078697 -0.38728678 -0.93475825 -0.49845248 0.0104986485 0.08021794 0.5952052
-0.4394306 0.13852416 -0.1333831 0.538302 -0.050949518 0.50605154 0.12865518 -0.21418056
-0.4977611 0.16479328 -0.07818951 -0.022408709 -0.1746029 0.11034322 0.0915163 -0.44505
-0.01696599 -0.31460577 -0.61274326 0.09106579 0.2682844 0.022155827 -0.29707113 0.057154268
-0.009152675 -0.06850554 -0.029546851 0.012762916 -0.081624165 0.5081422 -0.15040435 -0.88344777
-0.7380093 -0.05764827 -0.27156007 -0.014260626 0.42774287 -0.6481829 -0.30924928 0.11687473
-0.019241601 0.66665995 -0.6038923 -0.030131087 -0.39533293 -0.58789504 0.1400346 -0.10749777
-0.2404388 -0.89365107 0.09888044 0.4847073 0.1804566 -0.06785552 -0.50010836 0.6027384
-0.33336073 -0.5174361 0.018867582 -0.0558347 -0.20937103 -0.37509096 0.13896933 -0.11288204
-0.20527425 -0.65158296 0.18138124 0.08754983 0.20428877 -0.3519162 0.35494143 0.35131407
0.096755 -0.09399064 -0.6073698 0.12137193 -0.107496396 -0.25480685 0.116471246 0.5629686
00000000: a032 083e 9c48 f73e a363 9bbe 8354 46bd
00000010: fda6 51be 07bf efbe e702 1a3f 912c fbbd
00000020: bb21 14be 596a 57bd 3baf 76be 378c f43e
00000030: c8da 8c3e d236 f9be 16ca 1b3e 4323 a7be
00000040: 0a3e 1b3e b225 febd 324f 5c3e 54a9 933c
00000050: 1f5b bbbe cdb8 73be 4c73 67be 980f 8c3d
00000060: 82c7 333f cbc7 5cbe c3d9 3d3f c697 f7bd
00000070: 8aa8 db3e 2d7c 4a3d b9f3 ac3e 7b8a 833d
00000080: 32b5 c03d 983c 003f baff 213e aa9a 583d
00000090: 9acb be3e 9b1f b1bc 83e6 583d e996 893e
000000a0: 7c78 19be 7824 26be 80f6 713e 26a3 bebe
000000b0: 7a4b ac3e bf2e 5f3d d024 d6bd 1b9b 133e
000000c0: 0fd2 91be 83ad 01bf ca08 d53c 53fa c53e
000000d0: 3bea 813e 14e9 2ebf 6e92 e7be 4979 ffbe
000000e0: 61d0 da3e d081 8b3e 5f88 02bf 4694 003f
000000f0: 816e 033e ed48 5dbe 279c 943e 7578 bebe
00000100: 72ff 61be d22a 213f c10b d4bd 7b3d dc3e
00000110: 28e7 26be 683c d33e 4665 83be d06a aa3d
00000120: f6f3 203f a798 c93d 55e0 4fbe d1ff f03c
00000130: 40c8 da3d 1e95 8bbe d09f 6f3d 9838 b33e
00000140: acfd 9cbe 5f87 3cbf 4726 5abe 7680 b7be
00000150: 4248 30be 3c24 393f 0154 1e3d 999b e7be
00000160: db8d 963e 81ed e13e e2d6 ab3e da73 7a3e
00000170: 2a3e 02bf 5730 a8be 6e8a 44be 4bc3 3fbf
00000180: b7a8 e53e c4cd 073f 9b90 f83e db7b 28bd
00000190: f05d a4bd dd36 d43d 0eda 70be 6dde d43e
000001a0: b9f9 a8be 57fe 8abe abb7 053d 15d5 323f
000001b0: 8335 a43d 63ec 803e 481e 233e f4be 2e3e
000001c0: 7b6c 06be 0e48 2e3f 744a c6be 514c 6fbf
000001d0: 2a35 ffbe 8602 2c3c 4e49 a43d 5e5f 183f
000001e0: 0cfd e0be 47d9 0d3e 9495 08be 29ce 093f
000001f0: 71b0 50bd 988c 013f 2fbe 033e 2652 5bbe
00000200: 8bda febe 92bf 283e d221 a0bd 7892 b7bc
00000210: 1acb 32be a0fb e13d e66c bb3d 98dd e3be
00000220: 43fc 8abc 0214 a1be bedc 1cbf b380 ba3d
00000230: 935c 893e 2380 b53c b519 98be 981a 6a3d
00000240: 1af5 15bc a24c 8cbd 3d0c f2bc 8d1b 513c
00000250: 922a a7bd 9b15 023f 9903 1abe a229 62bf
00000260: 2dee 3cbf 9820 6cbd ec09 8bbe 67a5 69bc
00000270: 1d01 db3e 51ef 25bf ec55 9ebe 055c ef3d
00000280: 90a0 9dbc 3aaa 2a3f b098 1abf 78d5 f6bc
00000290: 1469 cabe 4a80 16bf 3b65 0f3e ca27 dcbd
000002a0: 9735 76be 51c6 64bf d481 ca3d 8e2b f83e
000002b0: 9dc9 383e d6f7 8abd 1a07 00bf 104d 1a3f
000002c0: 42ae aabe b176 04bf 3090 9a3c edb2 64bd
000002d0: 5c65 56be ec0b c0be fa4d 0e3e b32e e7bd
000002e0: 6a33 52be 24ce 26bf 01bc 393e 534d b33d
000002f0: 1331 513e 5c2e b4be e2ba b53e 70df b33e
00000300: 7c27 c63d 2a7e c0bd 967c 1bbf d991 f83d
00000310: 1227 dcbd 0b76 82be 7a88 ee3d b61e 103f

rnn.bias_hh_l1 f4 [200]
0.07343207 0.37753993 -0.3711428 0.0014056955 -0.12348494 -0.55991566 0.48331186 -0.1149377
-0.18781532 -0.04093627 -0.3073786 0.46812582 0.28379083 -0.50176585 0.22964422 -0.36880183
0.06846437 -0.03487196 0.12550677 -0.036272082 -0.3688675 -0.1872785 -0.1950649 0.029883787
0.6950346 -0.13611391 0.80590826 -0.11465238 0.47565353 0.07425287 0.4185154 -0.020002646
0.07219241 0.5057948 0.08604122 0.020484317 0.47108832 -0.11028882 0.082714714 0.29304934
-0.15495524 -0.20971434 0.32818747 -0.2507091 0.36437058 0.1473581 -0.21307635 0.19153905
-0.26293525 -0.54220486 0.10572564 0.28989625 0.2723948 -0.6909493 -0.47995672 -0.54013354
0.34416404 0.19761145 -0.51741415 0.5100096 0.06417556 -0.18771891 0.2605864 -0.3941847
-0.20429154 0.5550386 -0.09382028 0.40735996 -0.23298436 0.4175515 -0.26704305 -0.02602179
0.6317875 0.15641862 -0.091905005 0.03144297 0.22366175 -0.32630044 0.121731244 0.43891612
-0.24983345 -0.7657045 -0.26706794 -0.4075022 -0.066242255 0.726933 0.033989422 -0.43937266
0.34155563 0.48865062 0.2875465 0.31883717 -0.5825734 -0.37880197 -0.21488877 -0.76781774
0.4074949 0.5973341 0.47118706 -0.055903062 -0.03868258 0.18080834 -0.14182913 0.34841582
-0.28741497 -0.2952279 -0.0472088 0.6861541 0.02148058 0.31194636 0.24815632 0.2835959
-0.11302255 0.5973637 -0.3027294 -0.8703733 -0.57970166 0.0014549124 -0.02766418 0.60200596
-0.46707216 0.07744609 -0.20484 0.5109033 -0.17126898 0.588605 0.23574246 -0.19425121
-0.44734275 0.22279923 -0.006730681 -0.055936385 -0.18891264 0.15879554 0.10640508 -0.46815345
-0.015956162 -0.29858437 -0.6200967 0.039876867 0.22507514 0.007823216 -0.19552279 0.031472415
-0.08620259 -0.048514128 -0.021459296 -0.060528174 -0.16123377 0.5049811 -0.24314997 -0.82445353
-0.6644697 -0.048067257 -0.2550359 -0.066288754 0.4304745 -0.68186384 -0.42749614 0.12403399
0.024674894 0.72524476 -0.53195626 0.06299928 -0.37634125 -0.57575196 0.2146325 -0.037161633
-0.16474031 -0.8832076 0.11069676 0.5088987 0.19097514 0.02117667 -0.44332865 0.60451347
-0.3665767 -0.47406706 -0.0053771795 -0.083304256 -0.17550388 -0.4054111 0.20466793 -0.19897349
-0.29420725 -0.5945695 0.11067462 0.1592082 0.12009637 -0.32097006 0.36589327 0.33646977
0.09935273 -0.08575395 -0.670798 0.12424494 0.002806481 -0.33134446 0.20693555 0.55191374
00000000: 8e63 963d ea4c c13e 6e06 bebe 503f b83a
00000010: ace5 fcbd a256 0fbf a774 f73e 7564 ebbd
00000020: a952 40be caac 27bd ba60 9dbe 30ae ef3e
00000030: 084d 913e ba73 00bf db27 6b3e 98d3 bcbe
00000040: 0c37 8c3d e6d5 0ebd d984 003e 0992 14bd
00000050: 33dc bcbe efc5 3fbe 18bf 47be d8ce f43c
00000060: caed 313f 7261 0bbe 0150 4e3f dece eabd
00000070: dc88 f33e e411 983d a747 d63e 97dc a3bc
00000080: 9dd9 933d c57b 013f 6136 b03d bace a73c
00000090: 7d32 f13e 1bdf e1bd 5566 a93d 900a 963e
000000a0: 96ac 1ebe 5bbf 56be 3008 a83e f15c 80be
000000b0: c88e ba3e 0be5 163e b030 5abe d022 443e
000000c0: 739f 86be f0cd 0abf af86 d83d 486d 943e
000000d0: 5577 8b3e 0ee2 30bf e3bc f5be 3146 0abf
000000e0: 4536 b03e a85a 4a3e 4175 04bf fd8f 023f
000000f0: 7a6e 833d 6339 40be 956b 853e 94d2 c9be
00000100: cd31 51be 0217 0e3f d924 c0bd 7c91 d03e
00000110: 7493 6ebe 4fc9 d53e deb9 88be a62b d5bc
00000120: d3bc 213f 342c 203e b138 bcbd 58ca 003d
00000130: 9607 653e da10 a7be 3b4e f93d 9db9 e03e
00000140: 57d4 7fbe 3605 44bf 21bd 88be 21a4 d0be
00000150: 05aa 87bd 4818 3a3f 7e38 0b3d 74f5 e0be
00000160: 61e0 ae3e 6a30 fa3e 4b39 933e a03e a33e
00000170: 8823 15bf 55f2 c1be cd0b 5cbe b48f 44bf
00000180: 2ca3 d03e e3ea 183f 6e3f f13e 9cfa 64bd
00000190: a071 1ebd d225 393e a83b 11be 8f63 b23e
000001a0: 0e28 93be 1c28 97be 045e 41bd cca7 2f3f
000001b0: 0bf8 af3c 6fb7 9f3e b11c 7e3e 7b33 913e
000001c0: 5e78 e7bd d4ec 183f 59ff 9abe c9d0 5ebf
000001d0: 5467 14bf c2b2 be3a fe9f e2bc 101d 1a3f
000001e0: 1524 efbe 0e9c 9e3d 94c1 51be 8fca 023f
000001f0: 2361 2fbe d1ae 163f 7966 713e cae9 46be
00000200: 1c0a e5be 7b25 643e 0b8d dcbb 8d1d 65bd
00000210: 5172 41be 4c9b 223e e8ea d93d cfb1 efbe
00000220: 7fb6 82bc 0de0 98be a8be 1ebf ed55 233d
00000230: 197a 663e f22c 003c 2037 48be 38e9 003d
00000240: fc8a b0bd c0b6 46bd 68cb afbc 64ec 77bd
00000250: 771a 25be 7146 013f 4efc 78be 630f 53bf
00000260: b01a 2abf 2ce2 44bd 1194 82be 66c2 87bd
00000270: 2767 dc3e a18e 2ebf c6e0 dabe 8805 fe3d
00000280: 0123 ca3c a4a9 393f 492e 08bf c405 813d
00000290: cdaf c0be 7b64 13bf 9fc8 5b3e cc36 18bd
000002a0: afb1 28be e519 62bf fcb4 e23d 2f47 023f
000002b0: fd8e 433e b27a ad3c f9fb e2be 65c1 1a3f
000002c0: f1af bbbe ebb8 f2be 0d33 b0bb 6c9b aabd
000002d0: 4ab7 33be 0b92 cfbe 7894 513e b5bf 4bbe
000002e0: 55a2 96be b535 18bf 60a9 e23d 7907 233e
000002f0: 16f5 f53d 3056 a4be 5d56 bb3e c445 ac3e
00000300: 7279 cb3d c49f afbd 6bb9 2bbf 2274 fe3d
00000310: f0ec 373b fba5 a9be eae6 533e 384a 0d3f
