Namegenerator/saved_models/RNN_model.pth (torch, 555987 bytes, 11 tensors)

embedding.weight f4 [66, 15]
000000 f6 36 0a 3f 30 e7 af bd 25 ea 6c 3f b3 3e c0 3d
       0.53990114 -0.085890174 0.92544776 0.09386959
000010 71 f0 b3 3f 23 02 af be b9 7c 68 bf 38 ef ba bf
       1.4057752 -0.34181318 -0.9081531 -1.4604254
000020 dd 5e e2 3e c8 c1 99 bf 98 6a 04 3f 6f 7c 10 3f
       0.44213 -1.2012262 0.5172515 0.5643987
000030 a0 6c cd be 38 be ae 3f f6 e2 d8 be 19 8c e4 bf
       -0.40121937 1.36518 -0.42360657 -1.7855254
000040 5a 2a c3 3f 31 f4 d7 3d 0f 60 a7 3e 0b d4 be 3e
       1.52473 0.10544623 0.32690474 0.3727115
000050 e3 77 1d 3e 75 f8 0f c0 13 e7 db 3f 5a 08 3b 3f
       0.15377764 -2.2495396 1.7179893 0.7305962
000060 f0 ad c6 3e 3c d4 18 bf 02 0f 13 bf 4d b8 e1 3f
       0.3880458 -0.59698844 -0.57444775 1.7634369
000070 43 95 65 3f 1c b6 98 bb 2b b7 80 3f 66 da 75 bf
       0.8968088 -0.004660381 1.0055898 -0.96036375
000080 a1 0d a3 bf 42 42 01 3f 2c 09 33 bf ec 1e 50 3f
       -1.2738534 0.50491726 -0.6993587 0.81297183
000090 f7 78 99 3f 59 23 ca 3f 0d 6c e5 be d9 c7 80 bd
       1.199004 1.5792037 -0.44809 -0.06288118
0000a0 2b 0b 86 bf 09 8c 87 3f 04 65 c6 3f 45 ed a7 3f
       -1.0472158 1.058961 1.5499578 1.3119284
0000b0 85 39 c2 bf b5 61 32 bf cd b2 43 3f 7d f7 e3 3f
       -1.5173804 -0.6968034 0.76444703 1.7809902
0000c0 35 62 dd 3f 87 e7 56 c0 bf 0f 61 40 8b 92 d3 3e
       1.7295595 -3.3578813 3.516586 0.4132274
0000d0 30 9f ae be 6a 81 8f 3e ea cf 31 3f 4c 37 72 3e
       -0.34105825 0.28028423 0.69457877 0.23653907
0000e0 82 df 62 3e 1c 3d 50 be ed 62 25 bf 8c 6a d5 3f
       0.22155574 -0.20335811 -0.64604074 1.667314
0000f0 a8 2a 1e bf 74 75 10 40 12 83 a5 3f 7f 2b d1 3f
       -0.6178384 2.2571688 1.2930624 1.6341399
000100 f1 76 48 40 70 6a 0d 3e a9 61 5d bf 5a cf 5c 3f
       3.1322596 0.13810134 -0.8647714 0.86253893
000110 b8 96 13 40 ec 03 79 be 35 95 65 3f f8 ff 48 c0
       2.3060741 -0.24317902 0.89680797 -3.140623
000120 b4 0e 0a 40 8f c8 39 be 10 40 99 bf 54 87 81 3f
       2.1571474 -0.18142913 -1.1972675 1.0119424
000130 19 2f 34 3e c8 70 aa 3f 72 86 b6 3f 76 63 54 bc
       0.17596091 1.3315668 1.425978 -0.012963166
000140 f0 f6 65 3f d3 db 0b bd 86 a3 8f 3f 32 b2 45 3e
       0.8982992 -0.034145188 1.1221778 0.19306257
000150 df 86 9b 3f 27 a0 6c 3e 68 1c 8d 3f fb f0 0e bd
       1.2150534 0.23107968 1.1024294 -0.034897786
000160 7d d0 9b bf 2b 83 dd bf 27 43 4b be 67 4a c0 bf
       -1.2173 -1.7305654 -0.19849835 -1.5022706
000170 df 8d 23 3f f7 d8 0c 3f 24 29 04 3f 7e 7a 01 bf
       0.63888353 0.5501856 0.51625276 -0.50577533
000180 d3 95 27 be dc 66 a2 3f 0b 17 90 be 42 14 73 3f
       -0.16365747 1.268764 -0.2814258 0.94952786
000190 c9 70 25 bf 51 65 21 c0 94 c4 b2 3f b9 a9 93 3c
       -0.6462522 -2.5218089 1.3966241 0.018025266
0001a0 f8 91 02 bf 9b ad f8 be f9 0a 81 be e8 ee 6a 3e
       -0.5100398 -0.4856995 -0.25203684 0.22942698
0001b0 11 7d 40 bf c9 f4 89 3f 14 3d e1 3f 1a f7 5c 3f
       -0.75190836 1.0777828 1.7596765 0.8631455
0001c0 f2 91 65 3f 6a ab ae be 88 0e d9 be 3e e7 a0 bf
       0.8967582 -0.34115154 -0.423939 -1.257057
0001d0 f8 cc 11 bf 87 93 c7 3f a7 2a 47 3f d5 e8 d3 bd
       -0.5695338 1.5591897 0.7779946 -0.103471436
0001e0 94 29 1e 3f da 6a 0f bf dc 87 f1 3d f7 3e 5e bf
       0.61782193 -0.5602242 0.11793491 -0.86814827
0001f0 b1 23 d3 be 61 d1 aa 3e 8e 6d a4 3e dd c2 b1 3f
       -0.41238168 0.33362868 0.32114834 1.3887593
000200 3c 91 ce 3e ec 3a e2 be c4 57 ec 3e 1c 00 eb bf
       0.4034518 -0.4418558 0.4616071 -1.8359408
000210 71 33 05 3f 2b 43 27 be 67 21 df 3e d0 84 86 bf
       0.5203162 -0.16334216 0.4358017 -1.0509281
000220 45 60 03 bf 2b 51 81 bf a8 15 ce 3e a5 ad ce 3e
       -0.5131877 -1.0102895 0.40250897 0.40366855
000230 86 ec 3e be c3 d3 c7 bf d0 9f ea bd ff b3 91 3e
       -0.18644914 -1.56115 -0.11456263 0.2845764
000240 fe 57 b1 3d 0c 30 e3 3e de ff 85 3e 22 79 e5 3e
       0.08659361 0.44372594 0.26171774 0.4481898
000250 37 7d 03 bf 51 70 37 3f cd d3 8b bf 9c 75 ed be
       -0.5136294 0.71655756 -1.0924011 -0.4637879
000260 83 31 82 3f 66 28 5b 3f b5 55 02 3e 1f 0f 01 3f
       1.017136 0.8560852 0.12728007 0.504137
000270 02 dd 37 bf 99 1d a6 3f cf b1 ea 3e 06 1b af 3f
       -0.71821606 1.2977782 0.45838782 1.3680122
000280 7a f7 42 bf 76 30 f8 bf 7d ba 5d 3b a6 d3 71 3f
       -0.7615887 -1.9389789 0.003383308 0.94463575
000290 05 53 02 3f e4 1f 92 bf f5 10 a1 be 02 67 5e 3f
       0.5090793 -1.1415982 -0.3145825 0.8687593
0002a0 91 e9 2a 40 a1 60 a3 bf 04 14 2c be e7 ec 32 3f
       2.6705058 -1.2763864 -0.1680451 0.69892734
0002b0 90 d2 74 bf 1c cc 9e bf 9d 90 ab 3e 44 d9 98 3e
       -0.9563379 -1.2406039 0.3350877 0.2985326
0002c0 95 fe 97 bd 55 62 fd be 67 25 7d 3c 09 a6 40 3f
       -0.074216045 -0.49489084 0.015450812 0.7525335
0002d0 b9 38 89 bf 7b b9 20 bf 58 52 32 bf b5 f6 24 be
       -1.0720435 -0.6278302 -0.69656897 -0.16109736
0002e0 6e 0c 17 bf 00 85 fe be 46 70 11 3f b4 68 96 bf
       -0.5900334 -0.49710846 0.5681194 -1.1750703
0002f0 77 d0 43 3f d7 aa 19 3f 35 0a ed 3f 74 c1 db 3f
       0.7648997 0.60026306 1.851874 1.7168412
000300 fb 52 a2 3d 45 ae b9 3f 57 ae 2a 40 5f 77 4a bf
       0.079259835 1.4506308 2.6668909 -0.79088396
000310 20 27 94 be 60 0f bd bf 8e 01 07 c0 fb a4 ed bd
       -0.289361 -1.4770317 -2.10947 -0.11603733
000320 19 aa 65 bf a4 df 04 be ba 55 f0 be c1 cf 0b 3f
       -0.89712673 -0.12975937 -0.46940404 0.5461388
000330 2a fe b4 3d 13 7a 86 bf ee 3c c1 bf 54 b5 ad 3e
       0.088375404 -1.0506004 -1.5096719 0.33927405
000340 3b 16 ab bf cd 3b 58 40 f9 5b 5d 3f e3 2b 17 3f
       -1.3366159 3.37865 0.86468464 0.5905134
000350 2e b9 f0 3f 1a 38 0e 3e 18 fd 96 bf 14 fc d5 be
       1.8806512 0.13888589 -1.1795988 -0.41793883
000360 23 1f 0e be e8 5b 82 bf 57 e5 61 bf d0 02 5c 3f
       -0.13879065 -1.0184298 -0.8824057 0.8594179
000370 5b ae fb be 46 27 9d bf 1d d4 df 3e 76 1c 05 40
       -0.4915646 -1.227761 0.43716517 2.079862
000380 00 50 00 3f db be ca 3e 5c 17 d9 3d f1 33 23 3f
       0.5012207 0.39598736 0.106001586 0.6375113
000390 c5 7d ec 3e e7 38 9b 3f d9 23 90 be a2 33 0c 3e
       0.46189705 1.212674 -0.2815235 0.13691571
0003a0 3f 02 0c bf 88 c0 b7 be 33 a6 da be b7 e5 97 bf
       -0.5469093 -0.35889077 -0.42704925 -1.1866978
0003b0 c1 68 3d c0 96 36 28 3f 9b d9 bc 3d 88 1d f3 bf
       -2.9595187 0.6570829 0.092211924 -1.8993387
0003c0 48 ff ee 3d f2 33 93 3f 6b 62 3b bf 87 90 df bc
       0.11669785 1.1500227 -0.7319705 -0.027290596
0003d0 d9 2a 1d 3e 24 3b 33 bf ca dd 9d be 23 09 1d 40
       0.15348376 -0.70012116 -0.30833274 2.4536827
0003e0 cc 8e 86 3f 51 3e c4 3e 35 25 93 3e ae 56 3e 3f
       1.0512328 0.38328794 0.28739324 0.7435101
0003f0 0a ed 10 bf c8 26 ab 3f 8f 4d fe 3e 79 1c 30 bf
       -0.5661169 1.337121 0.49668548 -0.68793446

rnn.weight_ih_l0 f4 [200, 15]
000000 fc 0d 28 bc e9 4a 93 3e 0f db 46 3f 45 ca ab 3e
       -0.01025724 0.2876809 0.77678007 0.33552757
000010 dd 44 dd 3e c3 93 42 bf 59 21 eb bb 36 d7 97 3e
       0.432166 -0.76006716 -0.007175606 0.2965638
000020 a0 dc 12 bf 76 bb 03 3f 2f 12 4a be 8d 0f 15 3e
       -0.573679 0.5145792 -0.19733499 0.14556713
000030 97 2c b5 be 64 3e d1 be 2c 21 c1 3e 3f e0 5e 3f
       -0.35385582 -0.40867913 0.3772062 0.8706092
000040 b0 73 84 3f 96 a0 d8 3d 28 a9 85 3f 74 df 21 3c
       1.0347805 0.10577504 1.0442247 0.0098799355
000050 2f 91 b6 be d8 01 9e bf 67 6d 36 3d 6a ca 98 3e
       -0.3565764 -1.2344313 0.044537928 0.2984193
000060 f0 c0 c6 be ff cd 47 bf 28 71 26 bf a9 c1 07 3f
       -0.38819075 -0.780487 -0.6501641 0.53029877
000070 5a 9b 25 3f b1 0a 4d be b9 5a 69 3f 5a 71 c5 bf
       0.6469017 -0.2002361 0.91154057 -1.5425217
000080 c3 6b ac 3e 93 81 53 3d ce af 74 3d b2 8a 32 3f
       0.33675966 0.051637243 0.059737973 0.6974288
000090 96 2f 3f 3f c7 df b6 be 39 bf 8d be 92 b3 18 3f
       0.74681985 -0.35717604 -0.27684954 0.59649
0000a0 dd bd 9f 3f 16 0c 50 3f f1 be 04 3f 6b 1f cf 3e
       1.2479817 0.8126844 0.51853853 0.40453658
0000b0 00 35 f3 be 23 58 21 3f f7 96 14 be d0 a4 6d 3e
       -0.47501373 0.6302511 -0.14510714 0.23207402
0000c0 16 52 a1 3f 55 d1 13 3e 63 f2 f7 bd 6d 1f a5 3e
       1.2603176 0.14435323 -0.121067785 0.32250538
0000d0 79 2c f1 3c 0e 41 0e 3f 49 d2 35 bf 28 57 50 be
       0.029440152 0.55568016 -0.71023995 -0.20345747
0000e0 d2 c0 2a 3e 88 18 02 3f dd b0 57 3f a2 9d c6 bf
       0.16675118 0.5081868 0.84254247 -1.5516856
0000f0 ef d6 cc bf f0 d4 d9 bd 66 39 1b 3f ba f5 0c bd
       -1.6003093 -0.10636318 0.6063446 -0.03441403
000100 9e eb aa bf 98 a3 dd 3e e0 b9 47 3f 4a 41 f5 3e
       -1.3353155 0.43288875 0.78018 0.47901374
000110 5c b7 21 bf ae a7 c2 3d d6 d4 0f bd 74 50 9d ba
       -0.6317041 0.095046386 -0.035115086 -0.0012002126
000120 9d 4b 39 bf 35 2c be bd e3 5d 9d 3d db 38 2d bf
       -0.72381 -0.092857756 0.07683923 -0.6766488
000130 72 fc 6d bf 7a 2c ac be e9 c3 b3 3d 0c 69 2a bd
       -0.92963326 -0.33627683 0.08777601 -0.041604087
000140 a3 10 6d bf 79 6b 96 bd 52 10 21 3f 57 c2 eb be
       -0.9260351 -0.073447175 0.6291553 -0.46046707
000150 e6 6e 76 3f 31 4d f0 3c 37 0a dd be 12 4e ff 3e
       0.9626297 0.029333683 -0.43171856 0.4986425
000160 94 75 be be 65 3f 52 bf f2 46 ef be c1 6a 5b 3e
       -0.3719908 -0.8212798 -0.46733814 0.21427442
000170 84 09 0e 3d 52 55 f3 3e 27 41 03 bd 7b 39 32 be
       0.034677044 0.47526032 -0.032044556 -0.1740474
000180 3a 9a a4 be 4b e6 5c 3f e6 c6 14 bf c5 b6 6d 3f
       -0.32148916 0.862889 -0.58115995 0.9285701
000190 14 ed 75 bf 18 aa 1f bf 95 d2 c5 3e 48 07 8c 3e
       -0.9606488 -0.6236892 0.38637224 0.27349305
0001a0 d9 e9 e4 bd 23 fc 8a be b1 41 12 bc 43 19 a7 bf
       -0.111774154 -0.2714549 -0.008926795 -1.3054584
0001b0 ae d5 1d 3f fa bf 55 3e a9 bb 5f bf 25 8d 4c 3f
       0.61654174 0.20874014 -0.8739572 0.7990287
0001c0 d4 4b cb 3d 60 96 31 bb 39 3f cb be b3 78 0c 3f
       0.099265724 -0.0027097687 -0.39696673 0.5487167
0001d0 59 da ee be a9 48 3f be 5d 2d 17 3f 5d 04 34 3f
       -0.4665096 -0.18680061 0.59053594 0.7031916
0001e0 12 c2 8b bf eb 6d 17 3e 70 12 75 bf d0 6a 1c 3f
       -1.09186 0.14788024 -0.9573126 0.6110048
0001f0 63 af 7f bf e4 40 92 3e 0a ec 32 3e ba d9 f1 3e
       -0.99876994 0.28565133 0.17472854 0.47236425
000200 aa 5f dc 3e e3 c3 29 bf ba ea 43 bf 6b 80 dd be
       0.43041736 -0.66314524 -0.7653004 -0.43262038
000210 30 c7 aa be 23 1d 28 3f 70 1b e9 be 02 b5 5c bf
       -0.33355093 0.6566946 -0.45528746 -0.86213696
000220 01 24 3d 3f be a1 9b be 1e 78 a2 3e e0 e8 ce be
       0.7388306 -0.30396837 0.31732267 -0.40412045
000230 c6 79 08 3f 5c 07 5b 3f 51 c2 79 3d 26 75 81 bf
       0.5331081 0.85558105 0.06097633 -1.0113876
000240 b2 f0 79 3e 29 0f 45 be ba 3a 20 bf 75 eb 91 be
       0.24408224 -0.19244064 -0.6258961 -0.28499952
000250 ac 8f 10 3f 0b 54 3c 3f 1a 1e b7 3e 71 ea 09 bf
       0.56469226 0.7356574 0.35765153 -0.53873354
000260 3a dc cd be c2 d8 53 bf 9c 1d 8a be ad df dc bf
       -0.40207082 -0.8275262 -0.26975715 -1.725576
000270 22 48 b8 be ce a3 a4 3e 3f e7 ae 3e 67 63 42 3f
       -0.35992533 0.32156223 0.34160802 0.75932926
000280 71 f6 e1 3d f9 61 09 3f 5d 7d 17 3f 29 f2 33 bd
       0.11033333 0.5366512 0.59175664 -0.043932114
000290 09 8a d9 3d 8c 15 2e 3e 86 21 af be 6c 54 48 bf
       0.10622031 0.17000407 -0.34205264 -0.7825382
0002a0 17 bb e9 3e 89 c7 82 3d 9c 9e 66 3f 16 11 98 3e
       0.4565055 0.063857146 0.9008577 0.29700536
0002b0 02 64 fb 3e 89 a6 99 3f aa 96 12 3c 42 7e a4 3f
       0.49099737 1.2003947 0.008947054 1.2851031
0002c0 63 3e 84 be c7 f3 97 3e c5 a0 6b bf 21 35 46 be
       -0.25828847 0.29678175 -0.9204219 -0.19356205
0002d0 1b 6d 3a bf 9b 6b 92 be 35 18 53 bf 97 73 72 3f
       -0.7282273 -0.2859772 -0.8245881 0.94707626
0002e0 c7 1f b8 be 93 8e 9b 3e d1 b8 84 be 62 da ce 3e
       -0.35961744 0.30382213 -0.25922254 0.40400988
0002f0 dc c1 21 3f 03 a6 a3 3d 95 01 a1 bf 6e a7 8d bf
       0.6318643 0.079906486 -1.2578608 -1.106672
000300 20 1d 9e bc 2f 32 bb 3d 79 b2 8f 3e 10 2c 3e bf
       -0.019300997 0.09140431 0.2806585 -0.74285984
000310 e1 dd 2d 3d e7 28 29 3e a8 d3 3d 3f 36 32 bc 3d
       0.04244793 0.1651951 0.74151087 0.091892645
000320 5f c6 c7 bd 6b 3c b5 3f 51 49 9e bd 7f 3c e7 3e
       -0.09754633 1.4159063 -0.07728828 0.45163342
000330 d1 d3 28 bf 32 33 8a bf a3 8a 04 bf 3e b2 97 3f
       -0.65948206 -1.0796874 -0.5177404 1.185127
000340 9f df ef 3e e1 fe df 3e 66 0d 89 be 4e af 03 bf
       0.46850297 0.43749145 -0.26768035 -0.5143937
000350 8a 79 b6 3f a5 a4 b6 3e 52 09 3d be 27 b1 53 3f
       1.4255841 0.3567249 -0.18460587 0.8269219
000360 46 eb ac 3e ab b7 0a bf b9 9d 31 bf f3 92 85 3f
       0.3377325 -0.54186505 -0.6938129 1.043547
000370 3a bc 28 bc 52 7e 09 3f be 4f 02 3e 70 55 71 bf
       -0.010298783 0.53708375 0.12725732 -0.9427099
000380 17 b3 15 3d 8c bc 05 bf 83 01 8f 3d 38 bd 36 3f
       0.036547747 -0.52240825 0.0698271 0.71382475
000390 54 66 4f 3e 3b f2 49 3f 8e 73 d3 be 8e 4c a0 3f
       0.20253879 0.7888524 -0.412991 1.2523363
0003a0 45 3e 2b 3e 37 ff 59 3e a1 97 9f be 74 df a8 3e
       0.16722973 0.21288763 -0.3117037 0.3298298
0003b0 5c ec 38 3e 67 5b d1 3d 08 db 57 3e 84 8c 8e bf
       0.18058914 0.10222512 0.21079648 -1.1136632
0003c0 bb b7 87 be 6e 21 91 3e 07 4e 9f bf 6c 6f 07 bf
       -0.26507363 0.28345817 -1.2445687 -0.5290439
0003d0 29 d6 31 3f 4c cd fc 3e 18 c9 a9 3e ec 3c 72 bf
       0.6946741 0.4937538 0.33161235 -0.9462421
0003e0 6e ca 2d 3f d2 c0 3e 3c 99 3f 49 3f 8d e2 6b 3e
       0.6788701 0.011642652 0.7861267 0.23035641
0003f0 de 6e 7a be 29 31 8d bd 49 9c 5f 3f a5 f1 a4 bf
       -0.24456355 -0.06894142 0.8734785 -1.2886244

rnn.weight_hh_l0 f4 [200, 200]
000000 3d 59 db 3e ea 78 1a be ae 28 62 be 20 3b 82 be
       0.4284152 -0.15085188 -0.2208583 -0.25435734
000010 85 9c ae 3d 92 a9 86 3e dd 15 35 bc 81 fe fc 3e
       0.085259475 0.26301247 -0.011052576 0.4941292
000020 aa d8 f9 3c 0f 62 e0 3c d4 2d 5a 3d cd f0 a4 3d
       0.030498821 0.027390508 0.05326636 0.080537416
000030 c9 9a 81 3d 34 b2 29 3e 72 3c 29 bd da a6 83 be
       0.06328351 0.16571885 -0.04131741 -0.25713235
000040 ee e9 b6 bc b4 6b 34 3e 15 97 e8 3e 10 c2 8b 3e
       -0.022328343 0.1761921 0.45427766 0.27296495
000050 94 65 8a be 14 39 fb 3e 62 e9 b2 3e 58 f6 23 be
       -0.27030623 0.49066985 0.34943682 -0.16011941
000060 d2 82 5e be 05 0b 4c be b9 99 ed 3d 9d 2c c1 be
       -0.21729591 -0.19926079 0.11601586 -0.3772935
000070 54 bd 96 3e b5 ed 24 3d 70 87 2a bc f6 8e cd 3d
       0.2944132 0.040265758 -0.010408267 0.10037033
000080 1b ef c7 be ed 4b 37 bd 54 30 3a be 24 5e 12 bc
       -0.3904961 -0.044750143 -0.18182498 -0.008933578
000090 88 4a 62 bd 94 3e 9d bd a8 d5 d0 bd 5f 64 6f be
       -0.05524686 -0.076779515 -0.10197002 -0.23378132
0000a0 16 4b 49 3e d3 2a a3 bd 04 c7 50 be 47 16 5c 3e
       0.1965755 -0.079671524 -0.20388418 0.21492873
0000b0 60 a5 2b 3e 24 44 7a 3e 16 25 2c bd 36 42 79 be
       0.16762304 0.24440056 -0.042027555 -0.24341664
0000c0 96 09 0a 3e e7 ed 61 bd f0 4e 90 bd 72 92 06 be
       0.13480219 -0.055158522 -0.07046306 -0.13141802
0000d0 b5 20 1a 3d d7 0b a1 be f1 9e 98 be 8c 3d 38 3e
       0.037628848 -0.31454346 -0.29808763 0.17992228
0000e0 28 97 0d be 6f b4 51 3e 1d 1b 7d bd aa cd 01 3d
       -0.13827193 0.20478986 -0.061793435 0.031690277
0000f0 f9 46 5b be 57 0e a3 3e 21 4d 7e be 46 a6 4f 3e
       -0.21413793 0.31846878 -0.2483411 0.20278272
000100 bc 49 6a 3e 29 0b 21 3e 03 e8 67 3e 20 e3 4d bc
       0.2287969 0.15726914 0.22647099 -0.012566358
000110 39 35 8e be c4 b6 af be 4c 44 6b 3e 8a 22 4b 3e
       -0.2777498 -0.34319127 0.22975272 0.19837394
000120 41 60 38 bd 20 5d 85 3e 30 cc 23 3e eb 5d 65 3e
       -0.04501367 0.2604761 0.1599586 0.22399108
000130 e2 36 fb 3c 6f bb 6d 3e d3 2c f5 be 35 83 82 be
       0.030665819 0.23216031 -0.4788576 -0.25490728
000140 d7 4c b1 3d 30 84 4f 3e 58 62 e6 bc 6d 52 bb 3e
       0.08657234 0.2026527 -0.028123066 0.36586323
000150 6f eb c2 be 62 73 04 3e 74 1f 23 be d7 9f ab be
       -0.38070247 0.1293464 -0.15929967 -0.33520386
000160 cc 86 bd bd da 67 43 be aa 37 12 bf dc 5b 83 bd
       -0.09254226 -0.19082585 -0.57116187 -0.06414005
000170 3d 7d 98 3e 1c 33 5b bc 69 61 ee 3e 65 fd 97 3d
       0.2978305 -0.013378885 0.46558693 0.07421378
000180 4a 6d d8 bd 1d 58 25 3d de 32 bb 3d c7 cb 3d 3e
       -0.1056772 0.040367234 0.091405615 0.18534766
000190 31 92 cd bd 30 5d 77 be fe 4a b6 3e e1 0b 25 3d
       -0.100376494 -0.24156642 0.3560409 0.04029453
0001a0 46 15 55 3f 5a 14 a8 3e b7 a2 0b be 87 26 bc 3d
       0.83235586 0.32828027 -0.1363629 0.09187036
0001b0 f9 d1 dc 3c 4a f6 31 3e 02 43 bd 3d 2f 71 a1 3e
       0.026955592 0.17379108 0.09241296 0.31531665
0001c0 4e c6 3a 3e ec 67 82 be 29 aa 32 3e 4f 48 a6 be
       0.1823971 -0.2546991 0.17447723 -0.32477042
0001d0 1d d6 a4 3e 90 78 4f 3e ba a7 c4 3e e2 26 c0 3e
       0.32194605 0.20260835 0.38409215 0.37529665
0001e0 2e 63 76 3d cc 47 26 3d bc a2 aa be c5 aa 62 3e
       0.06015318 0.040595815 -0.3332728 0.22135456
0001f0 cd 31 0d 3c 45 ca 8e be a6 79 16 bf 30 8f 67 3e
       0.00861783 -0.27888694 -0.5877937 0.22613215
000200 6f a5 1d 3d a3 38 e7 bd c0 8e ae 3e 18 94 89 be
       0.038487848 -0.112900995 0.34093285 -0.268708
000210 ff 24 e0 be dd 90 eb 3d bc 2b 7b be 4b 27 7f 3e
       -0.43778226 0.1150224 -0.24528402 0.24917333
000220 1b 52 93 3e 5f 15 34 3d 06 5c 26 be 27 31 5f 3b
       0.2877358 0.043965694 -0.16246042 0.0034056397
000230 43 60 95 3e c2 88 47 3d 31 bc 54 3e c2 7c a7 3d
       0.29175004 0.048714407 0.20774914 0.081780925
000240 9c 88 fa be bf f6 48 bc fd f8 84 be ea 22 3e bb
       -0.4893235 -0.01226586 -0.25971213 -0.002901251
000250 bd 1b f9 be 10 32 d5 be dd d8 2f 3e 65 95 a6 3e
       -0.48653975 -0.41639757 0.1717257 0.32535854
000260 0b 4e a6 3d 32 ec ca 3d 2a 18 91 be ca ff 25 3e
       0.08120354 0.09908332 -0.28338748 0.16210857
000270 65 8e 42 3e 3c 70 4b be f1 78 af 3e ee 76 14 be
       0.18999632 -0.19867033 0.34271958 -0.14498493
000280 79 5f 11 3d 2b 5d 2f be 5b 1c 87 be 65 b1 96 be
       0.03549144 -0.17125385 -0.2638882 -0.29432216
000290 b3 ce 98 3e 4f 70 35 3d d4 41 81 be 4d db a9 be
       0.298452 0.04429656 -0.25245535 -0.33175126
0002a0 03 9c 15 3e e5 b9 2c be b4 a2 2d 3e 36 54 1c 3f
       0.14610295 -0.16867788 0.16956598 0.61065996
0002b0 46 5a 62 be 97 33 57 bd 69 54 7b be 8e f8 a9 3e
       -0.22104749 -0.052539434 -0.24543919 0.33197445
0002c0 20 c0 15 be 4f 47 d2 3d ce 8a 9b 3d d7 37 7e 3e
       -0.14624071 0.10267507 0.07594834 0.24825989
0002d0 df b7 b1 bd ab cb 9e bd 88 49 a9 bd 25 b4 26 3e
       -0.08677649 -0.0775369 -0.08265978 0.16279657
0002e0 da b9 05 3c 21 75 9a 3d 07 36 f7 3e b1 bf 85 be
       0.008161986 0.07541872 0.48283407 -0.2612281
0002f0 c0 d5 df 3e a6 ca f9 bc d9 e2 12 3e 2f 5a 1a be
       0.43717766 -0.030492138 0.14344348 -0.15073465
000300 bf f8 d7 be 84 b6 26 bd 8a b5 65 be c5 b4 89 be
       -0.42181966 -0.040701404 -0.22432533 -0.2689573
000310 a3 32 53 be af a7 82 3e 76 99 5f 3e 65 af 15 3e
       -0.20624785 0.25518557 0.21835884 0.14617689
000320 56 a7 25 be 39 6d 6b bd 7d 09 7a 3e 1e 5b b3 be
       -0.16177115 -0.05747721 0.24417682 -0.35030454
000330 cd 2c 84 3c 30 9e 7d 3e 31 89 12 bd dc 78 87 3e
       0.016134644 0.24767375 -0.035775367 0.26459396
000340 76 c5 0c be 3f 4f 19 3e 4a 28 96 3e 78 8c 4e 3d
       -0.137472 0.14971636 0.29327613 0.05042693
000350 6b 03 1d 3d e6 b3 89 be b4 af 5c 3e 37 45 d1 bd
       0.038333338 -0.26895064 0.215514 -0.1021828
000360 34 07 91 3e 06 7d 8e 3e 48 28 81 3c 72 ea 90 be
       0.28325808 0.2782976 0.015766278 -0.28303868
000370 67 73 6b 3d 06 f7 8b be 42 8f a7 bd 18 05 b0 be
       0.057483103 -0.273369 -0.08181621 -0.34378886
000380 bd b0 40 be ab 13 41 be 03 a1 f2 bd 47 59 78 3e
       -0.1881742 -0.18855159 -0.11847117 0.24252807
000390 b2 04 1c 3c 0a b3 4f 3e b3 1c d4 bc 3e 6f c1 3d
       0.009522604 0.20283142 -0.025892591 0.09445046
0003a0 3b c8 81 be 96 86 8d be 3a 29 40 be bc 4b af 3e
       -0.25348076 -0.27641743 -0.18765727 0.34237468
0003b0 67 e4 1b 3e c0 53 9b 3e cc 05 6d 3e 62 f9 4e 3e
       0.15223847 0.30337334 0.23146743 0.2021232
0003c0 94 c9 fd 3d 21 82 01 3f 2c 3c 82 bd 7e a6 a3 bd
       0.123919636 0.50589186 -0.06359133 -0.0799074
0003d0 29 d0 47 bd db 62 01 bd 2c e3 a2 bc de 7d 3a 3e
       -0.0487825 -0.031588417 -0.019883715 0.18212077
0003e0 af 92 8f 3d 69 03 cf 3d f1 a9 25 be 08 58 76 3e
       0.070103996 0.10108072 -0.16178109 0.24057019
0003f0 ff 7e 0a 3e d9 c3 5e 3e 41 18 5c be 93 de 99 bd
       0.13525008 0.21754397 -0.21493627 -0.07513156

rnn.bias_ih_l0 f4 [200]
000000 16 3d 9b 3d 00 d8 ef 3d 1e b8 15 be ca 41 69 3e
       0.075800106 0.117111206 -0.14621016 0.22779003
000010 ea 8f b1 bc 6c 7f 18 bf 6b 9f 29 be f6 d1 ca be
       -0.021675069 -0.5956943 -0.1656472 -0.39613312
000020 ec db ec 3c 61 43 af bd 24 39 80 bc 15 2b 26 3e
       0.02891346 -0.085577734 -0.015652247 0.16227372
000030 01 c0 a3 3d 99 33 0f be f8 23 6a be 80 00 12 3c
       0.07995606 -0.13984527 -0.22865283 0.008911252
000040 f9 1f f0 3e 86 0a 1f 3e 07 11 1f 3f fd 9c 67 be
       0.46899393 0.15531358 0.62135357 -0.2261848
000050 43 c4 ba 3e bc 21 7b 3e d3 d5 3e bc 7f 8f a3 bd
       0.3647786 0.24524587 -0.011647659 -0.07986354
000060 b3 81 86 3c 52 b1 59 3e d2 65 8d 3e 7d 3a e8 bd
       0.016419267 0.21259049 0.27616745 -0.11339281
000070 3d f2 f1 bd 0c 01 08 bd a8 a0 df bd 7a 18 ad 3d
       -0.118137814 -0.033204123 -0.109193146 0.08451934
000080 03 4b 4c 3e 85 44 39 be 3e b5 cf bb e5 c6 97 3d
       0.1995049 -0.18092544 -0.0063387444 0.07410983
000090 fb 4a c6 bd 79 bd 33 be a5 59 50 3d fe 19 8c be
       -0.0968227 -0.17552747 0.05086674 -0.2736358
0000a0 97 d6 e7 3d 16 a5 1d bf 46 46 70 be 43 bc 88 be
       0.11320227 -0.61580026 -0.23464307 -0.26706132
0000b0 b8 a4 c9 3d bd fb 50 be d0 b0 06 bf 09 50 7c 3e
       0.09845871 -0.2040853 -0.52613544 0.24639906
0000c0 3d 94 02 3e 89 1a 3d be 82 8b a8 be 8d a7 da 3e
       0.12751861 -0.18467154 -0.32918936 0.42705956
0000d0 9a 78 6f bd 9a 68 52 3e 56 93 98 3e 34 b6 52 be
       -0.058464624 0.20547715 0.29799908 -0.20577317
0000e0 df c9 b2 3e 1d 07 a7 be 4a 94 fa 3d 28 f5 26 3d
       0.3491964 -0.32622615 0.12235315 0.040761143
0000f0 2a 0e b0 be 4d 85 45 be 98 57 f8 3d 05 55 0d bb
       -0.34385806 -0.19289131 0.12126082 -0.0021565568
000100 fa 33 0a be 8d 0c 40 3e 3d 31 5f bb c4 f0 e9 3d
       -0.1349639 0.18754788 -0.0034056448 0.114228755
000110 f7 0d 4e 3e 89 16 c5 bd 7a 57 29 3f 29 da 7f be
       0.20122515 -0.09623439 0.66149104 -0.24985565
000120 a3 3d 64 3e a7 d3 a3 3d da 01 aa 3d 25 ab c7 3e
       0.22289138 0.07999354 0.083011344 0.3899776
000130 47 de f7 3d 92 17 e3 be 04 cf 8c bd 82 80 41 3e
       0.12102943 -0.4435392 -0.068754226 0.18896678
000140 57 9d d2 bd 69 94 29 3e 34 96 a3 bc a0 3d 38 be
       -0.102839164 0.1656052 -0.019969083 -0.17992258
000150 55 81 0e be 48 0f 06 be df cd 87 bc 3c c9 90 3e
       -0.13916524 -0.13091767 -0.01657766 0.2827853
000160 53 1c 51 bd 7c 74 01 3e 89 bc cf 3c db 75 1b be
       -0.051052403 0.12642092 0.025358455 -0.15181677
000170 ff 8f d6 bc 71 e6 73 3e 74 ee 4b be 93 50 47 3c
       -0.02619171 0.23818375 -0.19915181 0.0121652065
000180 16 ab 8a 3e 4c 31 a3 bd a5 f4 91 3e 44 a9 8f ba
       0.27083653 -0.07968387 0.2850696 -0.0010960479
000190 68 2d 3f be 68 69 a6 3e 4a db 19 be c1 d7 72 3e
       -0.18669665 0.32502294 -0.15025058 0.23715116
0001a0 00 87 d5 3c 1a 78 cb 3d 46 f6 c7 be 7e b3 6c bd
       0.02606535 0.09935017 -0.3905508 -0.057788365
0001b0 2c 90 cc be bb 40 97 be 55 4d 50 3e 88 59 19 be
       -0.39953744 -0.29541573 0.20342 -0.1497556
0001c0 20 63 23 bd 43 57 47 3e d1 da be be d8 a3 9e 3d
       -0.039889455 0.19466881 -0.3727632 0.077460945
0001d0 3f da ac 3d bd 01 09 bc 60 96 63 3b cc b3 b2 be
       0.08440065 -0.008362231 0.0034727082 -0.349028
0001e0 d2 ca cf bd d4 02 91 be e9 bb 6c 3d b2 c6 40 be
       -0.10146107 -0.2832247 0.057796393 -0.18825796
0001f0 64 f8 27 bd 73 3a d7 3d 45 82 fa bd ea bb bc bd
       -0.041008368 0.10509195 -0.12231878 -0.09215529
000200 96 2a 38 bc c2 81 88 bd 52 f4 c6 bd 33 85 40 3c
       -0.011240622 -0.06665374 -0.09714569 0.011750507
000210 70 5c 2a be 10 e2 c4 3d 8e b0 c3 bd 20 81 33 3d
       -0.16636825 0.096134305 -0.095551595 0.043824315
000220 ec c0 35 be d2 7b 54 3e 48 69 5a 3e 9b f6 f9 3d
       -0.17749375 0.20750359 0.21329224 0.122052394
000230 e8 04 ad 3d 8d 60 68 3e 93 5d 18 be d0 90 d6 3e
       0.084482014 0.22693081 -0.14879446 0.41907358
000240 82 dd 14 be 08 68 8c 3d 1d 93 97 be 29 a7 8c be
       -0.14537624 0.0685578 -0.29604426 -0.27471283
000250 58 8e b1 3e 63 44 d9 bd 8b 65 75 be b2 96 88 3d
       0.34678912 -0.10608747 -0.23964517 0.06669368
000260 ae 4d ac bb c3 b5 45 be 48 8b 80 3e d2 83 41 be
       -0.0052582836 -0.19307618 0.25106263 -0.18897942
000270 f0 aa b9 bd 2e a2 f6 3e 6a 13 58 3e ea 10 94 be
       -0.09065807 0.48170608 0.21101156 -0.28919154
000280 d8 b6 dd be 61 28 c9 3e 1b d7 af be 88 52 16 3c
       -0.4330356 0.3928862 -0.343438 0.00917495
000290 a3 b7 01 bf d3 7e 67 3e 6b 67 7c 3e b0 21 ad 3d
       -0.5067083 0.22606973 0.24648826 0.08453691
0002a0 80 0f ef 3d da ce 7b be ce 60 89 3e ed 66 33 bd
       0.11672878 -0.24590626 0.2683167 -0.04379933
0002b0 5c b7 12 bc 54 f5 ed bd a2 cd f8 3d 58 4c 01 3e
       -0.008954849 -0.11619058 0.12148596 0.12626779
0002c0 f4 8d 9b 3d ff 16 91 bd d8 62 5e bd 01 f1 0f be
       0.07595435 -0.07084464 -0.054293483 -0.1405678
0002d0 fd 84 d0 3e 58 e7 52 3c c2 a1 02 3e 6c fe 6a 3e
       0.40726462 0.012872539 0.12757018 0.22948617
0002e0 b2 b4 a0 3e 86 fb 02 be 61 0b ab be a7 50 e2 3e
       0.3138786 -0.12791261 -0.3340712 0.44202158
0002f0 21 b0 89 be b6 eb 43 be 0f c5 19 bf 76 01 b0 3e
       -0.26892188 -0.19132885 -0.6006631 0.34376115
000300 7e 95 81 3c 58 24 2a be 6f 9c d0 3d 2b f3 ed 3d
       0.015818354 -0.16615427 0.10186087 0.11618646
000310 b0 da c8 3d db 17 18 be 0a a5 4e 3c e6 b0 83 3d
       0.09807336 -0.1485285 0.012612591 0.06430225

rnn.bias_hh_l0 f4 [200]
000000 c6 f2 53 3d 35 89 26 3d 2e d7 1a bd 5c 05 64 3e
       0.0517452 0.040658195 -0.037802868 0.2226767
000010 cb 50 a5 3d 37 0b 0f bf 3c f7 2f bd 60 98 e0 be
       0.08072051 -0.5587649 -0.04296039 -0.43866253
000020 6b 3c 8f bd a4 c4 96 bd 4b e8 ac bd 6e 20 8a 3e
       -0.06993946 -0.07361725 -0.08442744 0.26977867
000030 11 91 c9 3d 4e 96 31 be 8d 61 80 be 5b 93 3a 3d
       0.09842122 -0.17342493 -0.25074425 0.045550685
000040 a6 6a d1 3e f9 ca 81 3e 1a 3e 30 3f cb c0 e1 bd
       0.4090168 0.25350168 0.6884476 -0.110231005
000050 a8 b9 80 3e 11 a9 08 3e bb 12 78 bd 23 26 e7 bd
       0.25141644 0.13345744 -0.060564738 -0.11286571
000060 69 3e 0d bd 39 d0 e6 3d 4f 0d 65 3e fe 79 12 be
       -0.034483347 0.11270184 0.22368358 -0.14304349
000070 53 d5 67 bd b8 9d ed bd c0 a0 1f be 4b 19 a2 3d
       -0.056599926 -0.11602348 -0.15588665 0.079149805
000080 da 2e 66 3e d2 de 01 be 14 ca 91 3c d0 96 e4 b9
       0.2247881 -0.12682655 0.017796554 -0.00043599913
000090 c7 3c e0 bd c1 35 14 be 2e 2c 8d 3d 5d f4 7f be
       -0.10949092 -0.1447363 0.06893192 -0.24995561
0000a0 7e 48 5a 3d 25 fa 21 bf a5 3d 65 be 01 46 8f be
       0.05329179 -0.63272315 -0.22386797 -0.27983096
0000b0 c8 2b cf 3d d4 25 4d be 92 37 03 bf 3f ff 5c 3e
       0.101157725 -0.20033962 -0.5125667 0.21581744
0000c0 2f 83 42 3d fa e2 8d be 74 2d 8c be 2d 7f cc 3e
       0.047488388 -0.27712232 -0.27378428 0.39940777
0000d0 bd 7f 44 3c 6d 2a 19 3e 4d 1d a2 3e d5 6b 4d be
       0.011993346 0.1495759 0.3166298 -0.20060666
0000e0 1f 50 b2 3e 23 2b c5 be 19 24 0e 3e e5 08 c3 3c
       0.34826753 -0.38509473 0.13880958 0.023807952
0000f0 a5 8a 99 be 83 22 62 be 8e a4 ba 3d ed c1 b4 ba
       -0.2998859 -0.22083478 0.091134176 -0.0013790705
000100 63 64 99 bd c8 15 7a 3e f6 32 81 3c d5 77 32 3e
       -0.0748985 0.24422371 0.01577137 0.17428525
000110 29 3b 20 3e 90 9c 5a bd 23 f9 1b 3f ee 48 57 be
       0.15647568 -0.053371966 0.6092703 -0.21023914
000120 50 e1 30 3e 36 72 f3 3d 1f bb f7 3d 1b 8d e8 3e
       0.1727345 0.118870184 0.120962374 0.45420155
000130 28 25 57 3e e4 33 f0 be 06 20 07 be bd 2a 4f 3e
       0.21010268 -0.4691459 -0.1319581 0.20231147
000140 fd f2 f0 bd da 19 2f 3d 59 8b d3 bd c9 12 54 be
       -0.11765096 0.042749263 -0.10329313 -0.20710291
000150 a0 2c 14 be 5c 71 59 be ff 63 93 3c 62 4d 75 3e
       -0.14470148 -0.2123465 0.017992018 0.239553
000160 15 f4 4b bc 50 33 4d 3d f1 31 88 3c 8c 9e f7 bd
       -0.01244833 0.050097764 0.016625376 -0.12090787
000170 9e 07 0a bd 5d b1 87 3e 14 22 6e be 57 fd 84 3c
       -0.03369867 0.26502505 -0.23255187 0.016234083
000180 98 16 82 3e 1b d7 41 bc c6 51 53 3e 88 d9 9e 3d
       0.25407863 -0.01183107 0.20636663 0.077563345
000190 87 e9 2d be ef 97 72 3e a8 12 c9 bd 7c d6 52 3e
       -0.16983615 0.2369077 -0.098180115 0.20589632
0001a0 1a e6 87 3d 1c 38 79 3d c1 9f 8c be 4d 89 bb ba
       0.06635685 0.060844526 -0.27465633 -0.0014307887
0001b0 ce 13 ca be f5 2c af be 2c f9 7d 3e 98 25 9c bd
       -0.39468235 -0.34213987 0.24802083 -0.07624358
0001c0 b4 fa 89 bd 8b b0 b6 3d ad dd b2 be 5a 01 39 3e
       -0.06737271 0.08920392 -0.3493475 0.18066922
0001d0 d2 24 4a 3e 35 98 5e bc 6a 0c fc 3d 0d 69 d0 be
       0.19740608 -0.013586094 0.12307055 -0.40705147
0001e0 6f 64 23 be 9f 26 96 be 2b 29 96 3d 16 d7 44 be
       -0.15956281 -0.2932634 0.07332071 -0.19222674
0001f0 08 5f 01 3d 8e f2 3f 3d b2 46 0c bd c8 5d 59 be
       0.03158477 0.046862178 -0.034247108 -0.21227181
000200 2e 81 02 be 34 3a 53 3c 8d 68 06 be ac 92 0e bd
       -0.1274459 0.012892295 -0.1312582 -0.034807846
000210 55 e2 ff bd 71 4c 14 3e ab ee f1 bd 2f 81 27 3d
       -0.12494341 0.14482285 -0.118131004 0.040894683
000220 dc d1 85 be 23 08 21 3e 59 e5 71 3e 25 4a d7 3d
       -0.26136672 0.1572576 0.23622645 0.10512189
000230 02 bc d1 3d 4e 37 63 3e 04 43 af bc 69 57 d9 3e
       0.10240938 0.22189066 -0.02139426 0.424495
000240 d5 3c bc bd d6 3e 9d 3d d9 77 98 be 9d 61 ab be
       -0.0919129 0.07678001 -0.29778937 -0.3347291
000250 0a c5 a7 3e 3a 2d a8 bd 14 c5 87 be 19 89 14 3e
       0.32767516 -0.08211751 -0.26517546 0.14505424
000260 a0 18 a3 bd ba 8e 1d be 52 ae 61 3e e6 ed 22 be
       -0.07963681 -0.15386477 0.22039154 -0.15911064
000270 52 50 a8 3c 72 81 dd 3e 3c b6 45 3e fb 6e b1 be
       0.020546112 0.4326282 0.19307798 -0.34654984
000280 e8 0e b7 be c4 5e bf 3e b8 4a bd be 15 ba 38 3d
       -0.3575356 0.37376988 -0.36971068 0.045099337
000290 8f a1 e4 be 94 62 43 3e 70 0e 3c 3e a8 d9 1d bd
       -0.4465451 0.19080573 0.18364882 -0.03853765
0002a0 21 49 74 3e 33 1e a0 be c3 59 2e 3e 4e ab 9a 3c
       0.23856021 -0.3127304 0.17026429 0.018880513
0002b0 ff 5a eb bd ee 0a 48 be 08 4c 0a 3e e0 90 18 3e
       -0.114919655 -0.1953542 0.13505566 0.14899015
0002c0 d9 ce 08 3e 56 d1 e3 bd 3a 18 d6 bd 64 8c 95 bd
       0.13360156 -0.11123912 -0.104538396 -0.07302168
0002d0 ca 22 c5 3e 95 de 55 3d 79 f9 14 3e aa 64 68 3e
       0.38503104 0.052214224 0.14548291 0.2269465
0002e0 7f 38 c7 3e 12 c2 09 be 6f 84 81 be 8e 6e f1 3e
       0.3891029 -0.13452938 -0.2529635 0.4715466
0002f0 1b 5f 63 be d1 9e 8a be 72 4e 1b bf 65 48 ac 3e
       -0.22204249 -0.27074292 -0.60666573 0.33648983
000300 fe 48 cf bd 79 0f e2 bd 53 31 a9 3d a5 c5 bf 3d
       -0.10121344 -0.110381074 0.08261361 0.093638696
000310 47 34 04 3e f7 ab 3e be 46 8f 42 bd ac 69 1d 3e
       0.12910567 -0.18620287 -0.047499917 0.15372342

rnn.weight_ih_l1 f4 [200, 200]
000000 e2 2b 72 be da 77 5c be d1 be 2c be bd b6 af bd
       -0.23649552 -0.21530095 -0.16869666 -0.085797764
000010 31 3e 60 be 01 87 07 3d 32 13 cf be f0 41 3d be
       -0.21898724 0.033087734 -0.40444332 -0.18482184
000020 f5 d7 03 be ba 89 d0 3e bd 8e 78 3e 37 8e 6f 3d
       -0.1287535 0.40730077 0.242732 0.058485236
000030 2f 88 97 be ed 5c 24 be ed aa 8d be 88 08 a9 bd
       -0.29596087 -0.16051073 -0.2766947 -0.0825358
000040 d3 15 e8 3e 61 f0 2e bd 13 bb 23 bd 4c 42 77 3d
       0.4532915 -0.042709712 -0.03997333 0.06036596
000050 58 02 81 be 55 68 16 3e fc 72 45 3e eb c4 3a 3e
       -0.251971 0.14688237 0.19282144 0.1823918
000060 ac 28 9c be f1 d0 06 bf da 8d 6b 3d 3d 6b ef 3d
       -0.3049978 -0.5266257 0.057508327 0.11690376
000070 64 f6 9b 3e 08 ba d8 3e 45 1b 04 3e 77 2b 80 3c
       0.3046142 0.4232943 0.12901028 0.015645726
000080 7a 3e aa be 40 fc e5 3b b7 e5 7b be 0e 7b bd 3e
       -0.3325079 0.007018596 -0.24599348 0.37007946
000090 99 b7 8c 3e 30 3b 20 3e 26 78 8e bc d2 6d b9 bd
       0.27483824 0.15647578 -0.017391276 -0.0905415
0000a0 f6 4a cc bd 8d d3 30 3e 61 38 17 be c7 0e e5 3d
       -0.09975235 0.172682 -0.147676 0.11184459
0000b0 49 1f a7 bd cb 60 33 bd fa c8 0d bf 58 fa 9f 3d
       -0.08160264 -0.04379348 -0.5538479 0.07811421
0000c0 61 48 04 be 17 c2 33 3d 81 3a e2 be 25 74 95 bd
       -0.12918235 0.04388627 -0.4418526 -0.072975434
0000d0 a1 09 0b 3d 84 1a 04 3f 40 3a 11 bd f6 ec 82 3d
       0.03394473 0.5160296 -0.035455942 0.06392853
0000e0 28 0f 00 3f 40 0d e9 be d9 92 6d 3e ac 03 6c 3f
       0.50023127 -0.4551792 0.23200549 0.921931
0000f0 6e e4 63 3d c5 2a 79 be 9e 12 15 be 77 4d c4 bd
       0.05563777 -0.24332722 -0.14557883 -0.09585088
000100 0d ad 94 3e 90 81 41 3e ee 03 1f 3d 31 fd ff bd
       0.29038277 0.1889708 0.038822107 -0.12499464
000110 5d e0 1d 3e 52 fc 58 3e cc 6d d7 3b f8 b5 de bc
       0.15417619 0.21190003 0.006574368 -0.027186379
000120 a2 8d b5 bd fc 25 07 3f d8 d5 a0 bd bc 55 3d 3e
       -0.08864905 0.52792335 -0.078532875 0.18489736
000130 40 44 4d 3e e4 c6 38 3e 30 1b cc bd b5 78 a8 bd
       0.20045567 0.18044621 -0.09966123 -0.08226148
000140 20 a1 95 bd b6 30 3e bd 0a 6f f9 3b 34 4f 1a be
       -0.07306123 -0.046433173 0.007612114 -0.15069276
000150 52 29 79 bd 47 eb 92 3c 71 cb a0 bd d0 fa a1 be
       -0.06083042 0.017934455 -0.07851303 -0.31636667
000160 35 4a c3 3e 5c e4 e6 3c 16 06 3f 3e 23 c8 16 3d
       0.38142553 0.028185062 0.18654665 0.03681196
000170 d7 e3 9a bd 88 2d 31 3c c6 9c 0c bd bf 85 c1 3e
       -0.07562988 0.010814078 -0.0343292 0.37797353
000180 4f bf 13 3e 0c 70 35 3e 2b aa ae 3e aa 7c d1 3c
       0.14428447 0.17718524 0.34114203 0.02557214
000190 c5 b4 84 3e 27 c9 b8 be 22 2c 9c be 56 32 ab bd
       0.25919166 -0.36090967 -0.3050242 -0.0835921
0001a0 f8 2d 05 be 50 2c d7 bd e3 5a 17 be 80 7a d0 3e
       -0.13005817 -0.10506499 -0.14780764 0.4071846
0001b0 f6 56 16 3e 9e 2a 4a be 77 8f d4 3c a6 3e b1 3e
       0.1468161 -0.1974282 0.025947316 0.3461811
0001c0 6c 40 6a 3e 2f 78 83 3e 19 83 b7 be a6 72 9f bd
       0.22876137 0.2567763 -0.35842207 -0.07785539
0001d0 c8 a7 fd 3e f8 87 03 3e 0c 18 cf 3c d2 9e 33 be
       0.4954207 0.12844837 0.025280021 -0.17541054
0001e0 ce 8b 97 be c2 61 83 3e 69 d5 86 be b2 f5 28 be
       -0.2959885 0.2566052 -0.26334694 -0.16499975
0001f0 6e 24 2a bb a5 33 76 be 52 f9 53 be 63 2a b9 3e
       -0.0025961655 -0.24043138 -0.20700577 0.3616515
000200 a5 d2 17 be 91 99 7a 3e af 20 4b bd 22 c6 9c 3d
       -0.14826448 0.24472643 -0.049591716 0.07654978
000210 6a 8a b5 be d9 ae 2d be 3f 63 8c bd 6a 10 c5 be
       -0.35457164 -0.1696123 -0.06854867 -0.38489085
000220 11 16 0e bf 09 28 43 be 6c aa 36 be 5c 2e 0a bc
       -0.5550242 -0.19058241 -0.17838448 -0.0084339045
000230 e3 5c 9d 3e 9b a3 93 3e 78 c8 7c 3d e2 e0 80 3e
       0.3073493 0.2883576 0.06171462 0.25171572
000240 70 67 81 3d f3 9e 2e 3f 28 bd 33 bd d5 f9 e7 be
       0.06318557 0.6821129 -0.043881565 -0.45307794
000250 85 c7 c5 bd 50 50 65 3e 17 d6 8c 3e 80 49 2b be
       -0.09657196 0.22393918 0.27507088 -0.16727257
000260 33 be 08 3f fc f2 94 3e 34 b1 58 3e 28 4e 55 be
       0.5341522 0.29091632 0.21161348 -0.20830595
000270 d9 d4 87 be 25 70 6e 3e 49 bc 78 be a8 5d 0d 3e
       -0.26529577 0.23284967 -0.24290575 0.13805258
000280 0f 72 2d 3d e6 e3 30 3d 0c a2 11 bf 19 4e 80 3e
       0.042345103 0.04318609 -0.5688789 0.25059584
000290 07 9b 14 3e 5f 07 30 3e 12 37 86 bd 28 ee 09 3e
       0.14512263 0.17190312 -0.065534726 0.13469756
0002a0 7e 4a 96 be be cb cf 3d 9b 7b 01 3e b7 0f 5e bc
       -0.29353708 0.101462826 0.12644808 -0.013553551
0002b0 8a e1 b5 3d 9b 7c 8b bd 38 9c 4c be 07 5c a4 3d
       0.08880909 -0.06810876 -0.19981468 0.08025365
0002c0 bb 66 4a 3d b8 f0 bb bc 4a cb 3e bd 68 fc da 3e
       0.049414378 -0.022941932 -0.04658059 0.42770696
0002d0 80 d1 a8 3c 31 be ad be e6 9b d6 3d 93 89 cd be
       0.02060771 -0.33934167 0.10478954 -0.40144023
0002e0 5f c0 35 3e 98 92 e7 3d 70 e0 0b bc 2a b8 de bd
       0.17749165 0.113072574 -0.008537397 -0.1087497
0002f0 38 e4 85 be b7 15 ad bd 32 bf 91 3e fc 42 b0 3b
       -0.2615068 -0.084514074 0.28466183 0.005379079
000300 23 6b 05 3d 9b f9 ed be df 05 41 3d 30 63 89 3e
       0.032572877 -0.46479496 0.04712474 0.26833487
000310 02 0a c1 3d 36 3f 5c 3d 4c d6 86 3e 5c 26 5e 3d
       0.09425737 0.05377122 0.2633537 0.0542358
000320 79 39 24 bd e5 dc 82 3d 02 a6 96 be 07 4b 6d 3e
       -0.040093873 0.063897885 -0.2942353 0.23173152
000330 f1 5a 75 bd 2c ab 05 be 30 76 17 bd 58 3c 36 be
       -0.05990118 -0.13053578 -0.036977947 -0.17796457
000340 aa 60 55 be d7 b1 b7 be 19 15 88 bc 4e 80 b0 3d
       -0.20837656 -0.3587787 -0.016611623 0.08618222
000350 e0 df 1b be 7f 51 98 be a3 3f 35 be a1 9e 6f be
       -0.1522212 -0.29749677 -0.17700057 -0.23400356
000360 d6 9c 1c be 19 13 1a be 13 87 7c be 36 43 22 be
       -0.15294203 -0.15046348 -0.24660902 -0.15845951
000370 a3 fa 56 3e cd 84 6e 3d fe 53 08 3d 74 bd ac 3d
       0.20994048 0.058232117 0.033283226 0.08434573
000380 f8 a7 fd bb 0a 66 59 3d 60 ae a0 bd 76 a6 50 3e
       -0.0077409707 0.053075828 -0.078457594 0.20376
000390 d1 42 d7 bd 07 82 05 be ea cd 48 3e 86 93 5b be
       -0.10510791 -0.13037883 0.196098 -0.21442994
0003a0 b5 e5 80 be 46 b2 4a be cb 6e ba 3d 2f 86 12 be
       -0.25175253 -0.19794568 0.09103163 -0.14309
0003b0 e8 c3 94 3d 42 54 db 3d d3 b4 92 be 2d 69 c2 3d
       0.07263929 0.1070943 -0.28653583 0.09492717
0003c0 2d 2e 3c 3e bf f4 15 bd 7b 7e 9f 3e 41 f4 f6 3d
       0.1837699 -0.03661036 0.31151184 0.120583065
0003d0 74 ff 3f 3d 81 3a 1f be 61 c8 d9 bd 2c 1c 9e bd
       0.04687448 -0.15549661 -0.10633922 -0.07720217
0003e0 04 d1 a7 bc 64 75 e8 bc f5 a7 30 3e f9 0f 20 be
       -0.020485409 -0.028376289 0.1725157 -0.15631093
0003f0 95 9d 0f be 60 e4 f7 bd b7 57 00 bf ce 60 9b 3c
       -0.14024957 -0.12104106 -0.5013384 0.018967059

rnn.weight_hh_l1 f4 [200, 200]
000000 b3 dc 46 3f f9 e2 83 3e b4 40 63 3d 2c 6b 57 bf
       0.7768051 0.25759104 0.055481628 -0.84147906
000010 ef 96 9f 39 0e 8a ca 3e d9 d0 41 bf 32 b5 89 be
       0.00030439298 0.39558452 -0.757093 -0.26896054
000020 6a ca 4d 3f 88 a8 fd 3e 0f fe 89 3d 50 62 cf be
       0.80386984 0.49542642 0.06737911 -0.40504694
000030 a7 36 6b bf 4b 0a 2d 3d d5 ea c0 3e f4 e8 d4 be
       -0.9188027 0.042246144 0.37679163 -0.4158398
000040 e4 45 ef be a5 23 94 be ba 90 b2 bd c8 a3 b9 bb
       -0.4673301 -0.28933445 -0.08719011 -0.005665276
000050 08 70 2e be 02 e2 3a be 83 ff e9 3e fb 2c d8 3d
       -0.17034924 -0.18250278 0.45702752 0.10555454
000060 ab bc a7 3d ed 05 be be 5b 0a 43 be 89 17 25 be
       0.081902824 -0.37113896 -0.19046919 -0.16122259
000070 bf 7b ba be 04 c2 04 bf 31 9d 4e bf 8f fc 15 3f
       -0.36422536 -0.51858544 -0.80708605 0.585885
000080 3a 97 55 be ab 01 cd bd ba 06 0d be 37 86 78 3e
       -0.2085847 -0.10010084 -0.13772097 0.24269949
000090 e2 66 a6 be 8c b7 58 3f da 70 c9 3d 8d 8d 5a 3f
       -0.32500368 0.8465507 0.09835978 0.8537224
0000a0 78 4d 31 be e2 b9 84 be 91 df 03 3f eb c8 52 be
       -0.17314708 -0.25923067 0.5151301 -0.20584457
0000b0 df 81 bb 3d dd 94 22 3e 86 14 13 3f 9e 7d f1 3d
       0.0915563 0.158771 0.5745319 0.11791538
0000c0 43 a3 a5 3e 3b b9 c7 3d 75 3f 8c 3d f5 99 da 3e
       0.3235112 0.09752127 0.06848041 0.42695585
0000d0 b4 c0 ce 3d 78 0b 26 3f 87 4e e0 3d 45 89 19 3e
       0.10095349 0.6486125 0.10952478 0.1499377
0000e0 d4 cb b6 be 50 bd ad bd 82 bc 9d 3e 7c b2 cd be
       -0.35702384 -0.08483374 0.30807883 -0.40175235
0000f0 08 6f c4 be f2 8f b7 3e 82 27 01 bf 63 b2 df be
       -0.3836596 0.3585201 -0.5045091 -0.43690786
000100 e2 3f 67 be 7b 0f 33 3e 20 6a 83 be f8 09 d8 3e
       -0.22582963 0.17486374 -0.25666904 0.42195106
000110 39 ce ad 3e d4 8a 1f 3e e2 04 b9 bd 6c c0 86 be
       0.33946398 0.15580302 -0.090341344 -0.2631868
000120 63 74 cb be 50 36 6d 3e 18 75 1f be 9a 0b 85 3e
       -0.39737234 0.2316525 -0.15572011 0.25985414
000130 15 34 9e 3e ef ed c7 3d 50 2c 25 be 3b 38 4b 3e
       0.3089911 0.09762179 -0.16130185 0.19845669
000140 12 ef 54 3e 86 79 27 bf 7b e7 b2 3e b6 14 56 be
       0.20794323 -0.65419805 0.3494223 -0.20906338
000150 16 63 87 3e 67 b3 4e 3f db 8a 3d 3e 8f da 86 be
       0.26442784 0.80742496 0.1851 -0.26338622
000160 11 b7 81 bf 82 69 bc bd fc 45 25 3e 2b e9 9f 3e
       -1.0133992 -0.091998115 0.16139978 0.3123258
000170 05 99 b1 3d 3e f2 3e 3e 68 f1 42 be 1c 85 0f 3e
       0.08671764 0.18647096 -0.19037402 0.14015621
000180 73 0e 0f be c5 07 fd be 6c eb ff bd 71 66 29 3f
       -0.13970356 -0.4941999 -0.12496075 0.6617194
000190 f2 15 22 3f 0c 07 a0 be 29 52 f6 be 6f 0c b1 3e
       0.63314736 -0.31255376 -0.48109558 0.345798
0001a0 2b 79 f3 be cd d4 aa be c0 b9 19 3f ef df be be
       -0.4755338 -0.3336548 0.60049057 -0.37280223
0001b0 0e 59 6a bf 5d 04 f4 3d 73 0a 32 bf 9b c5 3b 3f
       -0.91542137 0.11914895 -0.69547194 0.73348397
0001c0 2c a0 a8 be c9 b2 4e 3e 5b 95 a6 3e 45 ae e0 be
       -0.329347 0.20185389 0.32535824 -0.43882957
0001d0 4e cf 22 3d db 65 b6 be b8 0b 2e 3d e3 85 13 3f
       0.039748482 -0.35624585 0.042491645 0.5762617
0001e0 19 45 a8 bd 05 df b6 be 25 e0 d5 be 00 4b 81 3e
       -0.08216304 -0.35717025 -0.4177257 0.25252533
0001f0 7c 94 e1 bd 3d 01 8b 3e 78 79 d2 be c7 b1 bc be
       -0.11014649 0.27149382 -0.41108298 -0.36854383
000200 74 12 88 be 38 21 69 be fc 1a 19 be a6 6f 26 bf
       -0.2657658 -0.22766578 -0.149517 -0.6501411
000210 36 67 1e bf a7 1e 18 be 88 cf cd 3e 4f 0b 09 3c
       -0.6187624 -0.14855443 0.40197396 0.008364513
000220 7c d2 ff 3d 7a ce 4c 3c 42 3d 4e 3f a5 49 2e bd
       0.124913186 0.0125004 0.8056222 -0.0425507
000230 ee 5a e3 bd 99 8f ab be fd 6b 29 3e 4c e5 e0 be
       -0.11101328 -0.33507994 0.165451 -0.4392494
000240 06 86 f7 bd 1a d0 77 3f d3 ec f8 be 22 90 aa 3e
       -0.1208611 0.9680191 -0.48618183 0.3331309
000250 de a6 7f 3c cb 64 7f 3e 59 7a db be ec 41 51 be
       0.015603749 0.24940793 -0.4286678 -0.20435303
000260 c4 4e d7 3c 69 85 d9 bd 52 a6 a9 3e f8 d3 a8 3e
       0.026282676 -0.10621149 0.33134705 0.3297422
000270 e4 d1 c8 be c2 a4 16 bf 80 61 07 bf 41 76 a2 be
       -0.39222634 -0.5884515 -0.5288315 -0.31730846
000280 87 4b 17 3d b8 82 f0 3e a1 99 85 3e 4c 8f 3e bf
       0.036937263 0.4697473 0.26093772 -0.74437404
000290 c2 f9 b2 3e 8c fa 86 be c7 ca c2 bd 10 b6 41 bf
       0.34956175 -0.26363027 -0.09511333 -0.7566843
0002a0 f1 3a 8c 3c 5d fd a5 be da e1 b3 3e 65 20 fc 3e
       0.01711795 -0.32419863 0.3513325 0.49243465
0002b0 ba 97 2b be 49 40 1d be 43 47 6f be 3b 3c 9b 3e
       -0.16757098 -0.15356554 -0.23367028 0.3031939
0002c0 15 d6 34 3e 28 ef 08 3f 7e a6 11 3e 09 f4 f9 3e
       0.17659791 0.53489923 0.14223668 0.48818997
0002d0 9a 78 91 be 28 7c 9c 3e ae 68 36 3d 20 4b 19 3f
       -0.28412324 0.30563474 0.044533424 0.59880257
0002e0 bf fe 24 3e d2 b3 10 bf 47 69 ed be ce 37 76 3e
       0.16112803 -0.56524384 -0.46369383 0.24044725
0002f0 4c dc 28 3e bd 58 2f 3e 09 7f 8b 3d 32 aa 41 3e
       0.16490287 0.17123695 0.068113394 0.1891258
000300 34 96 c3 3e a3 95 75 be b1 74 50 3e 3a ee d6 3e
       0.38200533 -0.23982863 0.20357014 0.41978627
000310 10 bf 76 be ab 5c 01 bd e9 0e 83 bd df 12 b6 3c
       -0.24096322 -0.031582516 -0.06399328 0.022225795
000320 80 aa 36 bd 29 e1 83 be 87 f7 50 3d 45 f5 a4 3e
       -0.044596195 -0.2575772 0.05101731 0.32218376
000330 1e df ac be 10 de d3 bd 20 0b 15 3e 5d ac df 3d
       -0.33763975 -0.103450894 0.14555025 0.109215476
000340 8d d2 7c be a1 64 a9 bf ef ec c6 3e cc 70 ac 3d
       -0.24689694 -1.3233835 0.3885264 0.08419952
000350 25 61 0b 3f b5 15 79 be e4 b8 03 3e b7 16 cc 3c
       0.54445106 -0.24324687 0.12863499 0.024913175
000360 23 93 f1 3e 24 a1 9a 3e d7 2e ae 3e 41 01 ec bd
       0.4718257 0.30201066 0.3402011 -0.11523677
000370 0e b3 b7 3e e5 3b b4 3b 70 24 6c be 1e d0 62 3e
       0.35878795 0.005500304 -0.23060775 0.22149703
000380 ab 45 0d 3f 98 07 8d bc d5 fc 98 be 52 66 9e 3e
       0.5518443 -0.017215535 -0.29880396 0.3093744
000390 60 24 e0 3e bb 10 98 3e 2e a6 a1 3e e8 44 17 3e
       0.43777752 0.29700264 0.31572098 0.1477238
0003a0 a7 5e 98 3e c9 a2 86 3e e8 fc a4 bc f1 c2 a3 3e
       0.29759714 0.2629607 -0.020140126 0.31984666
0003b0 8d f4 35 bf fe 32 12 be e5 3c 72 be 31 85 54 bf
       -0.7107628 -0.14277264 -0.23656042 -0.83015734
0003c0 f6 8c 1c 3f 47 e2 42 bd 74 34 95 be 4a 30 06 be
       0.6115259 -0.047579076 -0.2914158 -0.13104358
0003d0 d4 42 37 bf 06 0d c4 3e b5 be b5 be 70 cc f6 3c
       -0.71586347 0.38291186 -0.3549706 0.03012678
0003e0 f9 ed b7 3e 7b 5b 82 be ad 77 fb be d1 2a 5d 3e
       0.35923746 -0.2546042 -0.49114743 0.21598364
0003f0 b5 83 21 bf 00 0a a5 bd fd 2f 64 be 46 cc ad be
       -0.63091594 -0.08058548 -0.22283931 -0.3394491
